…
device_id: 0
train_state {
  level: 0
  stage: ""
}
iter_size: 4
snapshot_format: HDF5
rms_decay: 0.9
type: "RMSProp"
I1002 12:50:15.598377 32741 solver.cpp:81] Creating training net from train_net file: ConfFiles/proto.prototxt
I1002 12:50:15.599462 32741 net.cpp:58] Initializing net from parameters: 
name: "VGG16b"
state {
  phase: TRAIN
  level: 0
  stage: ""
}
layer {
  name: "data"
  type: "ROOTData"
  top: "data"
  top: "label"
  root_data_param {
    batch_size: 20
    filler_config: "ConfFiles/train.cfg"
    filler_name: "DataFiller"
  }
}
layer {
  name: "conv1_1"
  type: "Convolution"
  bottom: "data"
  top: "conv1_1"
  param {
    lr_mult: 1
    decay_mult: 1
  }
  param {
    lr_mult: 2
    decay_mult: 0
  }
  convolution_param {
    num_output: 64
    pad: 1
    kernel_size: 3
    stride: 2
    weight_filler {
      type: "msra"
    }
  }
}
layer {
  name: "relu1_1"
  type: "ReLU"
  bottom: "conv1_1"
  top: "conv1_1"
}
layer {
  name: "conv1_2"
  type: "Convolution"
  bottom: "conv1_1"
  top: "conv1_2"
  param {
    lr_mult: 1
    decay_mult: 1
  }
  param {
    lr_mult: 2
    decay_mult: 0
  }
  convolution_param {
    num_output: 64
    pad: 1
    kernel_size: 3
    stride: 1
    weight_filler {
      type: "msra"
    }
  }
}
layer {
  name: "relu1_2"
  type: "ReLU"
  bottom: "conv1_2"
  top: "conv1_2"
}
layer {
  name: "pool1"
  type: "Pooling"
  bottom: "conv1_2"
  top: "pool1"
  pooling_param {
    pool: MAX
    kernel_size: 2
    stride: 2
  }
}
layer {
  name: "conv2_1"
  type: "Convolution"
  bottom: "pool1"
  top: "conv2_1"
  param {
    lr_mult: 1
    decay_mult: 1
  }
  param {
    lr_mult: 2
    decay_mult: 0
  }
  convolution_param {
    num_output: 128
    pad: 1
    kernel_size: 3
    weight_filler {
      type: "msra"
    }
  }
}
layer {
  name: "relu2_1"
  type: "ReLU"
  bottom: "conv2_1"
  top: "conv2_1"
}
layer {
  name: "conv2_2"
  type: "Convolution"
  bottom: "conv2_1"
  top: "conv2_2"
  param {
    lr_mult: 1
    decay_mult: 1
  }
  param {
    lr_mult: 2
    decay_mult: 0
  }
  convolution_param {
    num_output: 128
    pad: 1
    kernel_size: 3
    weight_filler {
      type: "msra"
    }
  }
}
layer {
  name: "relu2_2"
  type: "ReLU"
  bottom: "conv2_2"
  top: "conv2_2"
}
layer {
  name: "pool2"
  type: "Pooling"
  bottom: "conv2_2"
  top: "pool2"
  pooling_param {
    pool: MAX
    kernel_size: 2
    stride: 2
  }
}
layer {
  name: "conv3_1"
  type: "Convolution"
  bottom: "pool2"
  top: "conv3_1"
  param {
    lr_mult: 1
    decay_mult: 1
  }
  param {
    lr_mult: 2
    decay_mult: 0
  }
  convolution_param {
    num_output: 256
    pad: 1
    kernel_size: 3
    weight_filler {
      type: "msra"
    }
  }
}
layer {
  name: "relu3_1"
  type: "ReLU"
  bottom: "conv3_1"
  top: "conv3_1"
}
layer {
  name: "conv3_2"
  type: "Convolution"
  bottom: "conv3_1"
  top: "conv3_2"
  param {
    lr_mult: 1
    decay_mult: 1
  }
  param {
    lr_mult: 2
    decay_mult: 0
  }
  convolution_param {
    num_output: 256
    pad: 1
    kernel_size: 3
    weight_filler {
      type: "msra"
    }
  }
}
layer {
  name: "relu3_2"
  type: "ReLU"
  bottom: "conv3_2"
  top: "conv3_2"
}
layer {
  name: "conv3_3"
  type: "Convolution"
  bottom: "conv3_2"
  top: "conv3_3"
  param {
    lr_mult: 1
    decay_mult: 1
  }
  param {
    lr_mult: 2
    decay_mult: 0
  }
  convolution_param {
    num_output: 256
    pad: 1
    kernel_size: 3
    weight_filler {
      type: "msra"
    }
  }
}
layer {
  name: "relu3_3"
  type: "ReLU"
  bottom: "conv3_3"
  top: "conv3_3"
}
layer {
  name: "pool3"
  type: "Pooling"
  bottom: "conv3_3"
  top: "pool3"
  pooling_param {
    pool: MAX
    kernel_size: 2
    stride: 2
  }
}
layer {
  name: "conv4_1"
  type: "Convolution"
  bottom: "pool3"
  top: "conv4_1"
  param {
    lr_mult: 1
    decay_mult: 1
  }
  param {
    lr_mult: 2
    decay_mult: 0
  }
  convolution_param {
    num_output: 512
    pad: 1
    kernel_size: 3
    weight_filler {
      type: "msra"
    }
  }
}
layer {
  name: "relu4_1"
  type: "ReLU"
  bottom: "conv4_1"
  top: "conv4_1"
}
layer {
  name: "conv4_2"
  type: "Convolution"
  bottom: "conv4_1"
  top: "conv4_2"
  param {
    lr_mult: 1
    decay_mult: 1
  }
  param {
    lr_mult: 2
    decay_mult: 0
  }
  convolution_param {
    num_output: 512
    pad: 1
    kernel_size: 3
    weight_filler {
      type: "msra"
    }
  }
}
layer {
  name: "relu4_2"
  type: "ReLU"
  bottom: "conv4_2"
  top: "conv4_2"
}
layer {
  name: "conv4_3"
  type: "Convolution"
  bottom: "conv4_2"
  top: "conv4_3"
  param {
    lr_mult: 1
    decay_mult: 1
  }
  param {
    lr_mult: 2
    decay_mult: 0
  }
  convolution_param {
    num_output: 512
    pad: 1
    kernel_size: 3
    weight_filler {
      type: "msra"
    }
  }
}
layer {
  name: "relu4_3"
  type: "ReLU"
  bottom: "conv4_3"
  top: "conv4_3"
}
layer {
  name: "pool4"
  type: "Pooling"
  bottom: "conv4_3"
  top: "pool4"
  pooling_param {
    pool: MAX
    kernel_size: 2
    stride: 2
  }
}
layer {
  name: "conv5_1"
  type: "Convolution"
  bottom: "pool4"
  top: "conv5_1"
  param {
    lr_mult: 1
    decay_mult: 1
  }
  param {
    lr_mult: 2
    decay_mult: 0
  }
  convolution_param {
    num_output: 512
    pad: 1
    kernel_size: 3
    weight_filler {
      type: "msra"
    }
  }
}
layer {
  name: "relu5_1"
  type: "ReLU"
  bottom: "conv5_1"
  top: "conv5_1"
}
layer {
  name: "conv5_2"
  type: "Convolution"
  bottom: "conv5_1"
  top: "conv5_2"
  param {
    lr_mult: 1
    decay_mult: 1
  }
  param {
    lr_mult: 2
    decay_mult: 0
  }
  convolution_param {
    num_output: 512
    pad: 1
    kernel_size: 3
    weight_filler {
      type: "msra"
    }
  }
}
layer {
  name: "relu5_2"
  type: "ReLU"
  bottom: "conv5_2"
  top: "conv5_2"
}
layer {
  name: "conv5_3"
  type: "Convolution"
  bottom: "conv5_2"
  top: "conv5_3"
  param {
    lr_mult: 1
    decay_mult: 1
  }
  param {
    lr_mult: 2
    decay_mult: 0
  }
  convolution_param {
    num_output: 512
    pad: 1
    kernel_size: 3
    weight_filler {
      type: "msra"
    }
  }
}
layer {
  name: "relu5_3"
  type: "ReLU"
  bottom: "conv5_3"
  top: "conv5_3"
}
layer {
  name: "pool5"
  type: "Pooling"
  bottom: "conv5_3"
  top: "pool5"
  pooling_param {
    pool: MAX
    kernel_size: 2
    stride: 2
  }
}
layer {
  name: "fc6"
  type: "InnerProduct"
  bottom: "pool5"
  top: "fc6"
  param {
    lr_mult: 1
    decay_mult: 1
  }
  param {
    lr_mult: 2
    decay_mult: 0
  }
  inner_product_param {
    num_output: 5
    weight_filler {
      type: "msra"
    }
  }
}
layer {
  name: "acc"
  type: "Accuracy"
  bottom: "fc6"
  bottom: "label"
  top: "acc"
}
layer {
  name: "sofmax"
  type: "Softmax"
  bottom: "fc6"
  top: "softmax"
}
I1002 12:50:15.599674 32741 layer_factory.hpp:77] Creating layer data
I1002 12:50:15.599705 32741 net.cpp:100] Creating Layer data
I1002 12:50:15.599715 32741 net.cpp:408] data -> data
I1002 12:50:15.599756 32741 net.cpp:408] data -> label
[93m setting verbosity [00m2
    [95m[NORMAL][00m [0m [94m<DataFillerProcessDriver::configure>[00m Instantiating Process ID=0 Type: SimpleFiller w/ Name: SimpleFiller
…
    [95m[NORMAL][00m [0m [94m<DataFillerIOManager::prepare_input>[00m Opening a file in READ mode: /data/LArCNN/Samples_LArCV/BNB_NuMu_EventSize50k/Training/larcv_Background_Constrain_2.root
    [95m[NORMAL][00m [0m [94m<DataFillerIOManager::initialize>[00m Prepared input with 72744 entries...
I1002 12:50:17.988932 32741 heproot.cpp:20] Queuing data... (1 sec.)
I1002 12:50:19.264930 32741 heproot.cpp:20] Queuing data... (2 sec.)
I1002 12:50:20.537969 32741 heproot.cpp:20] Queuing data... (3 sec.)
I1002 12:50:21.810611 32741 heproot.cpp:20] Queuing data... (4 sec.)
I1002 12:50:23.084020 32741 heproot.cpp:20] Queuing data... (5 sec.)
I1002 12:50:23.199215 32741 net.cpp:150] Setting up data
I1002 12:50:23.199270 32741 net.cpp:157] Top shape: 20 1 512 512 (5242880)
I1002 12:50:23.199281 32741 net.cpp:157] Top shape: 20 (20)
I1002 12:50:23.199287 32741 net.cpp:165] Memory required for data: 20971600
I1002 12:50:23.199306 32741 layer_factory.hpp:77] Creating layer conv1_1
I1002 12:50:23.199357 32741 net.cpp:100] Creating Layer conv1_1
I1002 12:50:23.199369 32741 net.cpp:434] conv1_1 <- data
I1002 12:50:23.199407 32741 net.cpp:408] conv1_1 -> conv1_1
I1002 12:50:23.201472 32741 net.cpp:150] Setting up conv1_1
I1002 12:50:23.201514 32741 net.cpp:157] Top shape: 20 64 256 256 (83886080)
I1002 12:50:23.201522 32741 net.cpp:165] Memory required for data: 356515920
I1002 12:50:23.201560 32741 layer_factory.hpp:77] Creating layer relu1_1
I1002 12:50:23.201576 32741 net.cpp:100] Creating Layer relu1_1
I1002 12:50:23.201586 32741 net.cpp:434] relu1_1 <- conv1_1
I1002 12:50:23.201596 32741 net.cpp:395] relu1_1 -> conv1_1 (in-place)
I1002 12:50:23.201612 32741 net.cpp:150] Setting up relu1_1
I1002 12:50:23.201622 32741 net.cpp:157] Top shape: 20 64 256 256 (83886080)
I1002 12:50:23.201629 32741 net.cpp:165] Memory required for data: 692060240
I1002 12:50:23.201635 32741 layer_factory.hpp:77] Creating layer conv1_2
I1002 12:50:23.201652 32741 net.cpp:100] Creating Layer conv1_2
I1002 12:50:23.201658 32741 net.cpp:434] conv1_2 <- conv1_1
I1002 12:50:23.201668 32741 net.cpp:408] conv1_2 -> conv1_2
I1002 12:50:23.202288 32741 net.cpp:150] Setting up conv1_2
I1002 12:50:23.202301 32741 net.cpp:157] Top shape: 20 64 256 256 (83886080)
I1002 12:50:23.202308 32741 net.cpp:165] Memory required for data: 1027604560
I1002 12:50:23.202327 32741 layer_factory.hpp:77] Creating layer relu1_2
I1002 12:50:23.202363 32741 net.cpp:100] Creating Layer relu1_2
I1002 12:50:23.202370 32741 net.cpp:434] relu1_2 <- conv1_2
I1002 12:50:23.202380 32741 net.cpp:395] relu1_2 -> conv1_2 (in-place)
I1002 12:50:23.202391 32741 net.cpp:150] Setting up relu1_2
I1002 12:50:23.202401 32741 net.cpp:157] Top shape: 20 64 256 256 (83886080)
I1002 12:50:23.202409 32741 net.cpp:165] Memory required for data: 1363148880
I1002 12:50:23.202417 32741 layer_factory.hpp:77] Creating layer pool1
I1002 12:50:23.202435 32741 net.cpp:100] Creating Layer pool1
I1002 12:50:23.202441 32741 net.cpp:434] pool1 <- conv1_2
I1002 12:50:23.202451 32741 net.cpp:408] pool1 -> pool1
I1002 12:50:23.202522 32741 net.cpp:150] Setting up pool1
I1002 12:50:23.202535 32741 net.cpp:157] Top shape: 20 64 128 128 (20971520)
I1002 12:50:23.202541 32741 net.cpp:165] Memory required for data: 1447034960
I1002 12:50:23.202548 32741 layer_factory.hpp:77] Creating layer conv2_1
I1002 12:50:23.202566 32741 net.cpp:100] Creating Layer conv2_1
I1002 12:50:23.202574 32741 net.cpp:434] conv2_1 <- pool1
I1002 12:50:23.202586 32741 net.cpp:408] conv2_1 -> conv2_1
I1002 12:50:23.204690 32741 net.cpp:150] Setting up conv2_1
I1002 12:50:23.204706 32741 net.cpp:157] Top shape: 20 128 128 128 (41943040)
I1002 12:50:23.204712 32741 net.cpp:165] Memory required for data: 1614807120
I1002 12:50:23.204730 32741 layer_factory.hpp:77] Creating layer relu2_1
I1002 12:50:23.204741 32741 net.cpp:100] Creating Layer relu2_1
I1002 12:50:23.204749 32741 net.cpp:434] relu2_1 <- conv2_1
I1002 12:50:23.204759 32741 net.cpp:395] relu2_1 -> conv2_1 (in-place)
I1002 12:50:23.204771 32741 net.cpp:150] Setting up relu2_1
I1002 12:50:23.204782 32741 net.cpp:157] Top shape: 20 128 128 128 (41943040)
I1002 12:50:23.204788 32741 net.cpp:165] Memory required for data: 1782579280
I1002 12:50:23.204797 32741 layer_factory.hpp:77] Creating layer conv2_2
I1002 12:50:23.204814 32741 net.cpp:100] Creating Layer conv2_2
I1002 12:50:23.204821 32741 net.cpp:434] conv2_2 <- conv2_1
I1002 12:50:23.204833 32741 net.cpp:408] conv2_2 -> conv2_2
I1002 12:50:23.206593 32741 net.cpp:150] Setting up conv2_2
I1002 12:50:23.206607 32741 net.cpp:157] Top shape: 20 128 128 128 (41943040)
I1002 12:50:23.206614 32741 net.cpp:165] Memory required for data: 1950351440
I1002 12:50:23.206627 32741 layer_factory.hpp:77] Creating layer relu2_2
I1002 12:50:23.206642 32741 net.cpp:100] Creating Layer relu2_2
I1002 12:50:23.206650 32741 net.cpp:434] relu2_2 <- conv2_2
I1002 12:50:23.206660 32741 net.cpp:395] relu2_2 -> conv2_2 (in-place)
I1002 12:50:23.206672 32741 net.cpp:150] Setting up relu2_2
I1002 12:50:23.206682 32741 net.cpp:157] Top shape: 20 128 128 128 (41943040)
I1002 12:50:23.206689 32741 net.cpp:165] Memory required for data: 2118123600
I1002 12:50:23.206696 32741 layer_factory.hpp:77] Creating layer pool2
I1002 12:50:23.206707 32741 net.cpp:100] Creating Layer pool2
I1002 12:50:23.206727 32741 net.cpp:434] pool2 <- conv2_2
I1002 12:50:23.206737 32741 net.cpp:408] pool2 -> pool2
I1002 12:50:23.206778 32741 net.cpp:150] Setting up pool2
I1002 12:50:23.206789 32741 net.cpp:157] Top shape: 20 128 64 64 (10485760)
I1002 12:50:23.206794 32741 net.cpp:165] Memory required for data: 2160066640
I1002 12:50:23.206801 32741 layer_factory.hpp:77] Creating layer conv3_1
I1002 12:50:23.206816 32741 net.cpp:100] Creating Layer conv3_1
I1002 12:50:23.206823 32741 net.cpp:434] conv3_1 <- pool2
I1002 12:50:23.206835 32741 net.cpp:408] conv3_1 -> conv3_1
I1002 12:50:23.211315 32741 net.cpp:150] Setting up conv3_1
I1002 12:50:23.211333 32741 net.cpp:157] Top shape: 20 256 64 64 (20971520)
I1002 12:50:23.211339 32741 net.cpp:165] Memory required for data: 2243952720
I1002 12:50:23.211360 32741 layer_factory.hpp:77] Creating layer relu3_1
I1002 12:50:23.211376 32741 net.cpp:100] Creating Layer relu3_1
I1002 12:50:23.211385 32741 net.cpp:434] relu3_1 <- conv3_1
I1002 12:50:23.211395 32741 net.cpp:395] relu3_1 -> conv3_1 (in-place)
I1002 12:50:23.211407 32741 net.cpp:150] Setting up relu3_1
I1002 12:50:23.211418 32741 net.cpp:157] Top shape: 20 256 64 64 (20971520)
I1002 12:50:23.211426 32741 net.cpp:165] Memory required for data: 2327838800
I1002 12:50:23.211431 32741 layer_factory.hpp:77] Creating layer conv3_2
I1002 12:50:23.211447 32741 net.cpp:100] Creating Layer conv3_2
I1002 12:50:23.211454 32741 net.cpp:434] conv3_2 <- conv3_1
I1002 12:50:23.211467 32741 net.cpp:408] conv3_2 -> conv3_2
I1002 12:50:23.219187 32741 net.cpp:150] Setting up conv3_2
I1002 12:50:23.219202 32741 net.cpp:157] Top shape: 20 256 64 64 (20971520)
I1002 12:50:23.219209 32741 net.cpp:165] Memory required for data: 2411724880
I1002 12:50:23.219223 32741 layer_factory.hpp:77] Creating layer relu3_2
I1002 12:50:23.219235 32741 net.cpp:100] Creating Layer relu3_2
I1002 12:50:23.219244 32741 net.cpp:434] relu3_2 <- conv3_2
I1002 12:50:23.219254 32741 net.cpp:395] relu3_2 -> conv3_2 (in-place)
I1002 12:50:23.219266 32741 net.cpp:150] Setting up relu3_2
I1002 12:50:23.219276 32741 net.cpp:157] Top shape: 20 256 64 64 (20971520)
I1002 12:50:23.219283 32741 net.cpp:165] Memory required for data: 2495610960
I1002 12:50:23.219290 32741 layer_factory.hpp:77] Creating layer conv3_3
I1002 12:50:23.219307 32741 net.cpp:100] Creating Layer conv3_3
I1002 12:50:23.219316 32741 net.cpp:434] conv3_3 <- conv3_2
I1002 12:50:23.219326 32741 net.cpp:408] conv3_3 -> conv3_3
I1002 12:50:23.226991 32741 net.cpp:150] Setting up conv3_3
I1002 12:50:23.227007 32741 net.cpp:157] Top shape: 20 256 64 64 (20971520)
I1002 12:50:23.227013 32741 net.cpp:165] Memory required for data: 2579497040
I1002 12:50:23.227031 32741 layer_factory.hpp:77] Creating layer relu3_3
I1002 12:50:23.227047 32741 net.cpp:100] Creating Layer relu3_3
I1002 12:50:23.227056 32741 net.cpp:434] relu3_3 <- conv3_3
I1002 12:50:23.227066 32741 net.cpp:395] relu3_3 -> conv3_3 (in-place)
I1002 12:50:23.227078 32741 net.cpp:150] Setting up relu3_3
I1002 12:50:23.227089 32741 net.cpp:157] Top shape: 20 256 64 64 (20971520)
I1002 12:50:23.227097 32741 net.cpp:165] Memory required for data: 2663383120
I1002 12:50:23.227102 32741 layer_factory.hpp:77] Creating layer pool3
I1002 12:50:23.227113 32741 net.cpp:100] Creating Layer pool3
I1002 12:50:23.227120 32741 net.cpp:434] pool3 <- conv3_3
I1002 12:50:23.227130 32741 net.cpp:408] pool3 -> pool3
I1002 12:50:23.227177 32741 net.cpp:150] Setting up pool3
I1002 12:50:23.227190 32741 net.cpp:157] Top shape: 20 256 32 32 (5242880)
I1002 12:50:23.227195 32741 net.cpp:165] Memory required for data: 2684354640
I1002 12:50:23.227201 32741 layer_factory.hpp:77] Creating layer conv4_1
I1002 12:50:23.227221 32741 net.cpp:100] Creating Layer conv4_1
I1002 12:50:23.227228 32741 net.cpp:434] conv4_1 <- pool3
I1002 12:50:23.227241 32741 net.cpp:408] conv4_1 -> conv4_1
I1002 12:50:23.242347 32741 net.cpp:150] Setting up conv4_1
I1002 12:50:23.242388 32741 net.cpp:157] Top shape: 20 512 32 32 (10485760)
I1002 12:50:23.242394 32741 net.cpp:165] Memory required for data: 2726297680
I1002 12:50:23.242457 32741 layer_factory.hpp:77] Creating layer relu4_1
I1002 12:50:23.242475 32741 net.cpp:100] Creating Layer relu4_1
I1002 12:50:23.242485 32741 net.cpp:434] relu4_1 <- conv4_1
I1002 12:50:23.242499 32741 net.cpp:395] relu4_1 -> conv4_1 (in-place)
I1002 12:50:23.242516 32741 net.cpp:150] Setting up relu4_1
I1002 12:50:23.242525 32741 net.cpp:157] Top shape: 20 512 32 32 (10485760)
I1002 12:50:23.242532 32741 net.cpp:165] Memory required for data: 2768240720
I1002 12:50:23.242538 32741 layer_factory.hpp:77] Creating layer conv4_2
I1002 12:50:23.242557 32741 net.cpp:100] Creating Layer conv4_2
I1002 12:50:23.242563 32741 net.cpp:434] conv4_2 <- conv4_1
I1002 12:50:23.242575 32741 net.cpp:408] conv4_2 -> conv4_2
I1002 12:50:23.273572 32741 net.cpp:150] Setting up conv4_2
I1002 12:50:23.273610 32741 net.cpp:157] Top shape: 20 512 32 32 (10485760)
I1002 12:50:23.273617 32741 net.cpp:165] Memory required for data: 2810183760
I1002 12:50:23.273643 32741 layer_factory.hpp:77] Creating layer relu4_2
I1002 12:50:23.273669 32741 net.cpp:100] Creating Layer relu4_2
I1002 12:50:23.273679 32741 net.cpp:434] relu4_2 <- conv4_2
I1002 12:50:23.273695 32741 net.cpp:395] relu4_2 -> conv4_2 (in-place)
I1002 12:50:23.273712 32741 net.cpp:150] Setting up relu4_2
I1002 12:50:23.273722 32741 net.cpp:157] Top shape: 20 512 32 32 (10485760)
I1002 12:50:23.273730 32741 net.cpp:165] Memory required for data: 2852126800
I1002 12:50:23.273736 32741 layer_factory.hpp:77] Creating layer conv4_3
I1002 12:50:23.273753 32741 net.cpp:100] Creating Layer conv4_3
I1002 12:50:23.273759 32741 net.cpp:434] conv4_3 <- conv4_2
I1002 12:50:23.273772 32741 net.cpp:408] conv4_3 -> conv4_3
I1002 12:50:23.307621 32741 net.cpp:150] Setting up conv4_3
I1002 12:50:23.307657 32741 net.cpp:157] Top shape: 20 512 32 32 (10485760)
I1002 12:50:23.307664 32741 net.cpp:165] Memory required for data: 2894069840
I1002 12:50:23.307690 32741 layer_factory.hpp:77] Creating layer relu4_3
I1002 12:50:23.307708 32741 net.cpp:100] Creating Layer relu4_3
I1002 12:50:23.307718 32741 net.cpp:434] relu4_3 <- conv4_3
I1002 12:50:23.307734 32741 net.cpp:395] relu4_3 -> conv4_3 (in-place)
I1002 12:50:23.307751 32741 net.cpp:150] Setting up relu4_3
I1002 12:50:23.307760 32741 net.cpp:157] Top shape: 20 512 32 32 (10485760)
I1002 12:50:23.307766 32741 net.cpp:165] Memory required for data: 2936012880
I1002 12:50:23.307773 32741 layer_factory.hpp:77] Creating layer pool4
I1002 12:50:23.307786 32741 net.cpp:100] Creating Layer pool4
I1002 12:50:23.307792 32741 net.cpp:434] pool4 <- conv4_3
I1002 12:50:23.307803 32741 net.cpp:408] pool4 -> pool4
I1002 12:50:23.307848 32741 net.cpp:150] Setting up pool4
I1002 12:50:23.307859 32741 net.cpp:157] Top shape: 20 512 16 16 (2621440)
I1002 12:50:23.307867 32741 net.cpp:165] Memory required for data: 2946498640
I1002 12:50:23.307873 32741 layer_factory.hpp:77] Creating layer conv5_1
I1002 12:50:23.307893 32741 net.cpp:100] Creating Layer conv5_1
I1002 12:50:23.307901 32741 net.cpp:434] conv5_1 <- pool4
I1002 12:50:23.307912 32741 net.cpp:408] conv5_1 -> conv5_1
I1002 12:50:23.341961 32741 net.cpp:150] Setting up conv5_1
I1002 12:50:23.341995 32741 net.cpp:157] Top shape: 20 512 16 16 (2621440)
I1002 12:50:23.342002 32741 net.cpp:165] Memory required for data: 2956984400
I1002 12:50:23.342020 32741 layer_factory.hpp:77] Creating layer relu5_1
I1002 12:50:23.342038 32741 net.cpp:100] Creating Layer relu5_1
I1002 12:50:23.342048 32741 net.cpp:434] relu5_1 <- conv5_1
I1002 12:50:23.342064 32741 net.cpp:395] relu5_1 -> conv5_1 (in-place)
I1002 12:50:23.342082 32741 net.cpp:150] Setting up relu5_1
I1002 12:50:23.342090 32741 net.cpp:157] Top shape: 20 512 16 16 (2621440)
I1002 12:50:23.342097 32741 net.cpp:165] Memory required for data: 2967470160
I1002 12:50:23.342109 32741 layer_factory.hpp:77] Creating layer conv5_2
I1002 12:50:23.342128 32741 net.cpp:100] Creating Layer conv5_2
I1002 12:50:23.342134 32741 net.cpp:434] conv5_2 <- conv5_1
I1002 12:50:23.342146 32741 net.cpp:408] conv5_2 -> conv5_2
I1002 12:50:23.375908 32741 net.cpp:150] Setting up conv5_2
I1002 12:50:23.375949 32741 net.cpp:157] Top shape: 20 512 16 16 (2621440)
I1002 12:50:23.375957 32741 net.cpp:165] Memory required for data: 2977955920
I1002 12:50:23.375975 32741 layer_factory.hpp:77] Creating layer relu5_2
I1002 12:50:23.376001 32741 net.cpp:100] Creating Layer relu5_2
I1002 12:50:23.376013 32741 net.cpp:434] relu5_2 <- conv5_2
I1002 12:50:23.376029 32741 net.cpp:395] relu5_2 -> conv5_2 (in-place)
I1002 12:50:23.376046 32741 net.cpp:150] Setting up relu5_2
I1002 12:50:23.376055 32741 net.cpp:157] Top shape: 20 512 16 16 (2621440)
I1002 12:50:23.376063 32741 net.cpp:165] Memory required for data: 2988441680
I1002 12:50:23.376070 32741 layer_factory.hpp:77] Creating layer conv5_3
I1002 12:50:23.376088 32741 net.cpp:100] Creating Layer conv5_3
I1002 12:50:23.376096 32741 net.cpp:434] conv5_3 <- conv5_2
I1002 12:50:23.376107 32741 net.cpp:408] conv5_3 -> conv5_3
I1002 12:50:23.407594 32741 net.cpp:150] Setting up conv5_3
I1002 12:50:23.407637 32741 net.cpp:157] Top shape: 20 512 16 16 (2621440)
I1002 12:50:23.407644 32741 net.cpp:165] Memory required for data: 2998927440
I1002 12:50:23.407662 32741 layer_factory.hpp:77] Creating layer relu5_3
I1002 12:50:23.407680 32741 net.cpp:100] Creating Layer relu5_3
I1002 12:50:23.407690 32741 net.cpp:434] relu5_3 <- conv5_3
I1002 12:50:23.407704 32741 net.cpp:395] relu5_3 -> conv5_3 (in-place)
I1002 12:50:23.407723 32741 net.cpp:150] Setting up relu5_3
I1002 12:50:23.407732 32741 net.cpp:157] Top shape: 20 512 16 16 (2621440)
I1002 12:50:23.407739 32741 net.cpp:165] Memory required for data: 3009413200
I1002 12:50:23.407757 32741 layer_factory.hpp:77] Creating layer pool5
I1002 12:50:23.407771 32741 net.cpp:100] Creating Layer pool5
I1002 12:50:23.407778 32741 net.cpp:434] pool5 <- conv5_3
I1002 12:50:23.407789 32741 net.cpp:408] pool5 -> pool5
I1002 12:50:23.407832 32741 net.cpp:150] Setting up pool5
I1002 12:50:23.407845 32741 net.cpp:157] Top shape: 20 512 8 8 (655360)
I1002 12:50:23.407850 32741 net.cpp:165] Memory required for data: 3012034640
I1002 12:50:23.407858 32741 layer_factory.hpp:77] Creating layer fc6
I1002 12:50:23.407886 32741 net.cpp:100] Creating Layer fc6
I1002 12:50:23.407893 32741 net.cpp:434] fc6 <- pool5
I1002 12:50:23.407904 32741 net.cpp:408] fc6 -> fc6
I1002 12:50:23.995924 32741 net.cpp:150] Setting up fc6
I1002 12:50:23.995964 32741 net.cpp:157] Top shape: 20 5 (100)
I1002 12:50:23.995971 32741 net.cpp:165] Memory required for data: 3012035040
I1002 12:50:23.995991 32741 layer_factory.hpp:77] Creating layer fc6_fc6_0_split
I1002 12:50:23.996008 32741 net.cpp:100] Creating Layer fc6_fc6_0_split
I1002 12:50:23.996019 32741 net.cpp:434] fc6_fc6_0_split <- fc6
I1002 12:50:23.996035 32741 net.cpp:408] fc6_fc6_0_split -> fc6_fc6_0_split_0
I1002 12:50:23.996054 32741 net.cpp:408] fc6_fc6_0_split -> fc6_fc6_0_split_1
I1002 12:50:23.996101 32741 net.cpp:150] Setting up fc6_fc6_0_split
I1002 12:50:23.996114 32741 net.cpp:157] Top shape: 20 5 (100)
I1002 12:50:23.996121 32741 net.cpp:157] Top shape: 20 5 (100)
I1002 12:50:23.996129 32741 net.cpp:165] Memory required for data: 3012035840
I1002 12:50:23.996135 32741 layer_factory.hpp:77] Creating layer acc
I1002 12:50:23.996151 32741 net.cpp:100] Creating Layer acc
I1002 12:50:23.996162 32741 net.cpp:434] acc <- fc6_fc6_0_split_0
I1002 12:50:23.996171 32741 net.cpp:434] acc <- label
I1002 12:50:23.996182 32741 net.cpp:408] acc -> acc
I1002 12:50:23.996202 32741 net.cpp:150] Setting up acc
I1002 12:50:23.996212 32741 net.cpp:157] Top shape: (1)
I1002 12:50:23.996217 32741 net.cpp:165] Memory required for data: 3012035844
I1002 12:50:23.996223 32741 layer_factory.hpp:77] Creating layer sofmax
I1002 12:50:23.996243 32741 net.cpp:100] Creating Layer sofmax
I1002 12:50:23.996249 32741 net.cpp:434] sofmax <- fc6_fc6_0_split_1
I1002 12:50:23.996259 32741 net.cpp:408] sofmax -> softmax
I1002 12:50:23.996322 32741 net.cpp:150] Setting up sofmax
I1002 12:50:23.996335 32741 net.cpp:157] Top shape: 20 5 (100)
I1002 12:50:23.996340 32741 net.cpp:165] Memory required for data: 3012036244
I1002 12:50:23.996371 32741 net.cpp:228] sofmax does not need backward computation.
I1002 12:50:23.996377 32741 net.cpp:228] acc does not need backward computation.
I1002 12:50:23.996387 32741 net.cpp:228] fc6_fc6_0_split does not need backward computation.
I1002 12:50:23.996393 32741 net.cpp:228] fc6 does not need backward computation.
…
