…
device_id: 1
train_state {
  level: 0
  stage: ""
}
iter_size: 4
snapshot_format: HDF5
rms_decay: 0.9
type: "RMSProp"
I1001 13:20:17.258190 14847 solver.cpp:81] Creating training net from train_net file: ConfFiles/proto.prototxt
I1001 13:20:17.259300 14847 net.cpp:58] Initializing net from parameters: 
name: "VGG16b"
state {
  phase: TRAIN
  level: 0
  stage: ""
}
layer {
  name: "data"
  type: "ROOTData"
  top: "data"
  top: "label"
  root_data_param {
    batch_size: 40
    filler_config: "ConfFiles/train.cfg"
    filler_name: "DataFiller"
  }
}
layer {
  name: "conv1_1"
  type: "Convolution"
  bottom: "data"
  top: "conv1_1"
  param {
    lr_mult: 1
    decay_mult: 1
  }
  param {
    lr_mult: 2
    decay_mult: 0
  }
  convolution_param {
    num_output: 64
    pad: 1
    kernel_size: 3
    stride: 2
    weight_filler {
      type: "msra"
    }
  }
}
layer {
  name: "relu1_1"
  type: "ReLU"
  bottom: "conv1_1"
  top: "conv1_1"
}
layer {
  name: "conv1_2"
  type: "Convolution"
  bottom: "conv1_1"
  top: "conv1_2"
  param {
    lr_mult: 1
    decay_mult: 1
  }
  param {
    lr_mult: 2
    decay_mult: 0
  }
  convolution_param {
    num_output: 64
    pad: 1
    kernel_size: 3
    stride: 1
    weight_filler {
      type: "msra"
    }
  }
}
layer {
  name: "relu1_2"
  type: "ReLU"
  bottom: "conv1_2"
  top: "conv1_2"
}
layer {
  name: "pool1"
  type: "Pooling"
  bottom: "conv1_2"
  top: "pool1"
  pooling_param {
    pool: MAX
    kernel_size: 2
    stride: 2
  }
}
layer {
  name: "conv2_1"
  type: "Convolution"
  bottom: "pool1"
  top: "conv2_1"
  param {
    lr_mult: 1
    decay_mult: 1
  }
  param {
    lr_mult: 2
    decay_mult: 0
  }
  convolution_param {
    num_output: 128
    pad: 1
    kernel_size: 3
    weight_filler {
      type: "msra"
    }
  }
}
layer {
  name: "relu2_1"
  type: "ReLU"
  bottom: "conv2_1"
  top: "conv2_1"
}
layer {
  name: "conv2_2"
  type: "Convolution"
  bottom: "conv2_1"
  top: "conv2_2"
  param {
    lr_mult: 1
    decay_mult: 1
  }
  param {
    lr_mult: 2
    decay_mult: 0
  }
  convolution_param {
    num_output: 128
    pad: 1
    kernel_size: 3
    weight_filler {
      type: "msra"
    }
  }
}
layer {
  name: "relu2_2"
  type: "ReLU"
  bottom: "conv2_2"
  top: "conv2_2"
}
layer {
  name: "pool2"
  type: "Pooling"
  bottom: "conv2_2"
  top: "pool2"
  pooling_param {
    pool: MAX
    kernel_size: 2
    stride: 2
  }
}
layer {
  name: "conv3_1"
  type: "Convolution"
  bottom: "pool2"
  top: "conv3_1"
  param {
    lr_mult: 1
    decay_mult: 1
  }
  param {
    lr_mult: 2
    decay_mult: 0
  }
  convolution_param {
    num_output: 256
    pad: 1
    kernel_size: 3
    weight_filler {
      type: "msra"
    }
  }
}
layer {
  name: "relu3_1"
  type: "ReLU"
  bottom: "conv3_1"
  top: "conv3_1"
}
layer {
  name: "conv3_2"
  type: "Convolution"
  bottom: "conv3_1"
  top: "conv3_2"
  param {
    lr_mult: 1
    decay_mult: 1
  }
  param {
    lr_mult: 2
    decay_mult: 0
  }
  convolution_param {
    num_output: 256
    pad: 1
    kernel_size: 3
    weight_filler {
      type: "msra"
    }
  }
}
layer {
  name: "relu3_2"
  type: "ReLU"
  bottom: "conv3_2"
  top: "conv3_2"
}
layer {
  name: "conv3_3"
  type: "Convolution"
  bottom: "conv3_2"
  top: "conv3_3"
  param {
    lr_mult: 1
    decay_mult: 1
  }
  param {
    lr_mult: 2
    decay_mult: 0
  }
  convolution_param {
    num_output: 256
    pad: 1
    kernel_size: 3
    weight_filler {
      type: "msra"
    }
  }
}
layer {
  name: "relu3_3"
  type: "ReLU"
  bottom: "conv3_3"
  top: "conv3_3"
}
layer {
  name: "pool3"
  type: "Pooling"
  bottom: "conv3_3"
  top: "pool3"
  pooling_param {
    pool: MAX
    kernel_size: 2
    stride: 2
  }
}
layer {
  name: "conv4_1"
  type: "Convolution"
  bottom: "pool3"
  top: "conv4_1"
  param {
    lr_mult: 1
    decay_mult: 1
  }
  param {
    lr_mult: 2
    decay_mult: 0
  }
  convolution_param {
    num_output: 512
    pad: 1
    kernel_size: 3
    weight_filler {
      type: "msra"
    }
  }
}
layer {
  name: "relu4_1"
  type: "ReLU"
  bottom: "conv4_1"
  top: "conv4_1"
}
layer {
  name: "conv4_2"
  type: "Convolution"
  bottom: "conv4_1"
  top: "conv4_2"
  param {
    lr_mult: 1
    decay_mult: 1
  }
  param {
    lr_mult: 2
    decay_mult: 0
  }
  convolution_param {
    num_output: 512
    pad: 1
    kernel_size: 3
    weight_filler {
      type: "msra"
    }
  }
}
layer {
  name: "relu4_2"
  type: "ReLU"
  bottom: "conv4_2"
  top: "conv4_2"
}
layer {
  name: "conv4_3"
  type: "Convolution"
  bottom: "conv4_2"
  top: "conv4_3"
  param {
    lr_mult: 1
    decay_mult: 1
  }
  param {
    lr_mult: 2
    decay_mult: 0
  }
  convolution_param {
    num_output: 512
    pad: 1
    kernel_size: 3
    weight_filler {
      type: "msra"
    }
  }
}
layer {
  name: "relu4_3"
  type: "ReLU"
  bottom: "conv4_3"
  top: "conv4_3"
}
layer {
  name: "pool4"
  type: "Pooling"
  bottom: "conv4_3"
  top: "pool4"
  pooling_param {
    pool: MAX
    kernel_size: 2
    stride: 2
  }
}
layer {
  name: "conv5_1"
  type: "Convolution"
  bottom: "pool4"
  top: "conv5_1"
  param {
    lr_mult: 1
    decay_mult: 1
  }
  param {
    lr_mult: 2
    decay_mult: 0
  }
  convolution_param {
    num_output: 512
    pad: 1
    kernel_size: 3
    weight_filler {
      type: "msra"
    }
  }
}
layer {
  name: "relu5_1"
  type: "ReLU"
  bottom: "conv5_1"
  top: "conv5_1"
}
layer {
  name: "conv5_2"
  type: "Convolution"
  bottom: "conv5_1"
  top: "conv5_2"
  param {
    lr_mult: 1
    decay_mult: 1
  }
  param {
    lr_mult: 2
    decay_mult: 0
  }
  convolution_param {
    num_output: 512
    pad: 1
    kernel_size: 3
    weight_filler {
      type: "msra"
    }
  }
}
layer {
  name: "relu5_2"
  type: "ReLU"
  bottom: "conv5_2"
  top: "conv5_2"
}
layer {
  name: "conv5_3"
  type: "Convolution"
  bottom: "conv5_2"
  top: "conv5_3"
  param {
    lr_mult: 1
    decay_mult: 1
  }
  param {
    lr_mult: 2
    decay_mult: 0
  }
  convolution_param {
    num_output: 512
    pad: 1
    kernel_size: 3
    weight_filler {
      type: "msra"
    }
  }
}
layer {
  name: "relu5_3"
  type: "ReLU"
  bottom: "conv5_3"
  top: "conv5_3"
}
layer {
  name: "pool5"
  type: "Pooling"
  bottom: "conv5_3"
  top: "pool5"
  pooling_param {
    pool: MAX
    kernel_size: 2
    stride: 2
  }
}
layer {
  name: "fc6"
  type: "InnerProduct"
  bottom: "pool5"
  top: "fc6"
  param {
    lr_mult: 1
    decay_mult: 1
  }
  param {
    lr_mult: 2
    decay_mult: 0
  }
  inner_product_param {
    num_output: 5
    weight_filler {
      type: "msra"
    }
  }
}
layer {
  name: "acc"
  type: "Accuracy"
  bottom: "fc6"
  bottom: "label"
  top: "acc"
}
layer {
  name: "loss"
  type: "SoftmaxWithLoss"
  bottom: "fc6"
  bottom: "label"
  top: "loss"
}
I1001 13:20:17.259611 14847 layer_factory.hpp:77] Creating layer data
I1001 13:20:17.259651 14847 net.cpp:100] Creating Layer data
I1001 13:20:17.259665 14847 net.cpp:408] data -> data
I1001 13:20:17.259719 14847 net.cpp:408] data -> label
[93m setting verbosity [00m2
    [95m[NORMAL][00m [0m [94m<DataFillerProcessDriver::configure>[00m Instantiating Process ID=0 Type: SimpleFiller w/ Name: SimpleFiller
…
Error in <TCling::RegisterModule>: cannot find dictionary module ProcessorDict_rdict.pcm
    [95m[NORMAL][00m [0m [94m<DataFillerIOManager::prepare_input>[00m Opening a file in READ mode: /hepgpu1-data2/hewes/for_abigail/atmo.root
    [95m[NORMAL][00m [0m [94m<DataFillerIOManager::prepare_input>[00m Opening a file in READ mode: /hepgpu1-data2/hewes/for_abigail/nnbar.root
    [95m[NORMAL][00m [0m [94m<DataFillerIOManager::initialize>[00m Prepared input with 23459 entries...
I1001 13:20:19.610847 14847 heproot.cpp:20] Queuing data... (1 sec.)
I1001 13:20:20.100466 14847 net.cpp:150] Setting up data
I1001 13:20:20.100518 14847 net.cpp:157] Top shape: 40 1 600 600 (14400000)
I1001 13:20:20.100524 14847 net.cpp:157] Top shape: 40 (40)
I1001 13:20:20.100528 14847 net.cpp:165] Memory required for data: 57600160
I1001 13:20:20.100545 14847 layer_factory.hpp:77] Creating layer label_data_1_split
I1001 13:20:20.100566 14847 net.cpp:100] Creating Layer label_data_1_split
I1001 13:20:20.100577 14847 net.cpp:434] label_data_1_split <- label
I1001 13:20:20.100612 14847 net.cpp:408] label_data_1_split -> label_data_1_split_0
I1001 13:20:20.100631 14847 net.cpp:408] label_data_1_split -> label_data_1_split_1
I1001 13:20:20.100674 14847 net.cpp:150] Setting up label_data_1_split
I1001 13:20:20.100683 14847 net.cpp:157] Top shape: 40 (40)
I1001 13:20:20.100688 14847 net.cpp:157] Top shape: 40 (40)
I1001 13:20:20.100716 14847 net.cpp:165] Memory required for data: 57600480
I1001 13:20:20.100720 14847 layer_factory.hpp:77] Creating layer conv1_1
I1001 13:20:20.100754 14847 net.cpp:100] Creating Layer conv1_1
I1001 13:20:20.100759 14847 net.cpp:434] conv1_1 <- data
I1001 13:20:20.100765 14847 net.cpp:408] conv1_1 -> conv1_1
I1001 13:20:20.102874 14847 net.cpp:150] Setting up conv1_1
I1001 13:20:20.102888 14847 net.cpp:157] Top shape: 40 64 300 300 (230400000)
I1001 13:20:20.102892 14847 net.cpp:165] Memory required for data: 979200480
I1001 13:20:20.102923 14847 layer_factory.hpp:77] Creating layer relu1_1
I1001 13:20:20.102934 14847 net.cpp:100] Creating Layer relu1_1
I1001 13:20:20.102938 14847 net.cpp:434] relu1_1 <- conv1_1
I1001 13:20:20.102943 14847 net.cpp:395] relu1_1 -> conv1_1 (in-place)
I1001 13:20:20.102955 14847 net.cpp:150] Setting up relu1_1
I1001 13:20:20.102964 14847 net.cpp:157] Top shape: 40 64 300 300 (230400000)
I1001 13:20:20.102968 14847 net.cpp:165] Memory required for data: 1900800480
I1001 13:20:20.102974 14847 layer_factory.hpp:77] Creating layer conv1_2
I1001 13:20:20.102983 14847 net.cpp:100] Creating Layer conv1_2
I1001 13:20:20.102988 14847 net.cpp:434] conv1_2 <- conv1_1
I1001 13:20:20.102996 14847 net.cpp:408] conv1_2 -> conv1_2
I1001 13:20:20.104185 14847 net.cpp:150] Setting up conv1_2
I1001 13:20:20.104197 14847 net.cpp:157] Top shape: 40 64 300 300 (230400000)
I1001 13:20:20.104200 14847 net.cpp:165] Memory required for data: 2822400480
I1001 13:20:20.104209 14847 layer_factory.hpp:77] Creating layer relu1_2
I1001 13:20:20.104218 14847 net.cpp:100] Creating Layer relu1_2
I1001 13:20:20.104223 14847 net.cpp:434] relu1_2 <- conv1_2
I1001 13:20:20.104229 14847 net.cpp:395] relu1_2 -> conv1_2 (in-place)
I1001 13:20:20.104235 14847 net.cpp:150] Setting up relu1_2
I1001 13:20:20.104240 14847 net.cpp:157] Top shape: 40 64 300 300 (230400000)
I1001 13:20:20.104244 14847 net.cpp:165] Memory required for data: 3744000480
I1001 13:20:20.104249 14847 layer_factory.hpp:77] Creating layer pool1
I1001 13:20:20.104261 14847 net.cpp:100] Creating Layer pool1
I1001 13:20:20.104265 14847 net.cpp:434] pool1 <- conv1_2
I1001 13:20:20.104270 14847 net.cpp:408] pool1 -> pool1
I1001 13:20:20.104334 14847 net.cpp:150] Setting up pool1
I1001 13:20:20.104343 14847 net.cpp:157] Top shape: 40 64 150 150 (57600000)
I1001 13:20:20.104347 14847 net.cpp:165] Memory required for data: 3974400480
I1001 13:20:20.104353 14847 layer_factory.hpp:77] Creating layer conv2_1
I1001 13:20:20.104363 14847 net.cpp:100] Creating Layer conv2_1
I1001 13:20:20.104368 14847 net.cpp:434] conv2_1 <- pool1
I1001 13:20:20.104377 14847 net.cpp:408] conv2_1 -> conv2_1
I1001 13:20:20.105331 14847 net.cpp:150] Setting up conv2_1
I1001 13:20:20.105341 14847 net.cpp:157] Top shape: 40 128 150 150 (115200000)
I1001 13:20:20.105345 14847 net.cpp:165] Memory required for data: 4435200480
I1001 13:20:20.105353 14847 layer_factory.hpp:77] Creating layer relu2_1
I1001 13:20:20.105362 14847 net.cpp:100] Creating Layer relu2_1
I1001 13:20:20.105366 14847 net.cpp:434] relu2_1 <- conv2_1
I1001 13:20:20.105371 14847 net.cpp:395] relu2_1 -> conv2_1 (in-place)
I1001 13:20:20.105377 14847 net.cpp:150] Setting up relu2_1
I1001 13:20:20.105382 14847 net.cpp:157] Top shape: 40 128 150 150 (115200000)
I1001 13:20:20.105386 14847 net.cpp:165] Memory required for data: 4896000480
I1001 13:20:20.105388 14847 layer_factory.hpp:77] Creating layer conv2_2
I1001 13:20:20.105401 14847 net.cpp:100] Creating Layer conv2_2
I1001 13:20:20.105406 14847 net.cpp:434] conv2_2 <- conv2_1
I1001 13:20:20.105412 14847 net.cpp:408] conv2_2 -> conv2_2
I1001 13:20:20.107785 14847 net.cpp:150] Setting up conv2_2
I1001 13:20:20.107797 14847 net.cpp:157] Top shape: 40 128 150 150 (115200000)
I1001 13:20:20.107801 14847 net.cpp:165] Memory required for data: 5356800480
I1001 13:20:20.107808 14847 layer_factory.hpp:77] Creating layer relu2_2
I1001 13:20:20.107816 14847 net.cpp:100] Creating Layer relu2_2
I1001 13:20:20.107820 14847 net.cpp:434] relu2_2 <- conv2_2
I1001 13:20:20.107838 14847 net.cpp:395] relu2_2 -> conv2_2 (in-place)
I1001 13:20:20.107846 14847 net.cpp:150] Setting up relu2_2
I1001 13:20:20.107852 14847 net.cpp:157] Top shape: 40 128 150 150 (115200000)
I1001 13:20:20.107856 14847 net.cpp:165] Memory required for data: 5817600480
I1001 13:20:20.107862 14847 layer_factory.hpp:77] Creating layer pool2
I1001 13:20:20.107870 14847 net.cpp:100] Creating Layer pool2
I1001 13:20:20.107874 14847 net.cpp:434] pool2 <- conv2_2
I1001 13:20:20.107879 14847 net.cpp:408] pool2 -> pool2
I1001 13:20:20.107918 14847 net.cpp:150] Setting up pool2
I1001 13:20:20.107925 14847 net.cpp:157] Top shape: 40 128 75 75 (28800000)
I1001 13:20:20.107929 14847 net.cpp:165] Memory required for data: 5932800480
I1001 13:20:20.107933 14847 layer_factory.hpp:77] Creating layer conv3_1
I1001 13:20:20.107942 14847 net.cpp:100] Creating Layer conv3_1
I1001 13:20:20.107947 14847 net.cpp:434] conv3_1 <- pool2
I1001 13:20:20.107957 14847 net.cpp:408] conv3_1 -> conv3_1
I1001 13:20:20.112362 14847 net.cpp:150] Setting up conv3_1
I1001 13:20:20.112376 14847 net.cpp:157] Top shape: 40 256 75 75 (57600000)
I1001 13:20:20.112380 14847 net.cpp:165] Memory required for data: 6163200480
I1001 13:20:20.112390 14847 layer_factory.hpp:77] Creating layer relu3_1
I1001 13:20:20.112398 14847 net.cpp:100] Creating Layer relu3_1
I1001 13:20:20.112402 14847 net.cpp:434] relu3_1 <- conv3_1
I1001 13:20:20.112407 14847 net.cpp:395] relu3_1 -> conv3_1 (in-place)
I1001 13:20:20.112414 14847 net.cpp:150] Setting up relu3_1
I1001 13:20:20.112421 14847 net.cpp:157] Top shape: 40 256 75 75 (57600000)
I1001 13:20:20.112424 14847 net.cpp:165] Memory required for data: 6393600480
I1001 13:20:20.112427 14847 layer_factory.hpp:77] Creating layer conv3_2
I1001 13:20:20.112437 14847 net.cpp:100] Creating Layer conv3_2
I1001 13:20:20.112442 14847 net.cpp:434] conv3_2 <- conv3_1
I1001 13:20:20.112449 14847 net.cpp:408] conv3_2 -> conv3_2
I1001 13:20:20.120080 14847 net.cpp:150] Setting up conv3_2
I1001 13:20:20.120096 14847 net.cpp:157] Top shape: 40 256 75 75 (57600000)
I1001 13:20:20.120100 14847 net.cpp:165] Memory required for data: 6624000480
I1001 13:20:20.120110 14847 layer_factory.hpp:77] Creating layer relu3_2
I1001 13:20:20.120115 14847 net.cpp:100] Creating Layer relu3_2
I1001 13:20:20.120120 14847 net.cpp:434] relu3_2 <- conv3_2
I1001 13:20:20.120124 14847 net.cpp:395] relu3_2 -> conv3_2 (in-place)
I1001 13:20:20.120131 14847 net.cpp:150] Setting up relu3_2
I1001 13:20:20.120136 14847 net.cpp:157] Top shape: 40 256 75 75 (57600000)
I1001 13:20:20.120138 14847 net.cpp:165] Memory required for data: 6854400480
I1001 13:20:20.120141 14847 layer_factory.hpp:77] Creating layer conv3_3
I1001 13:20:20.120153 14847 net.cpp:100] Creating Layer conv3_3
I1001 13:20:20.120158 14847 net.cpp:434] conv3_3 <- conv3_2
I1001 13:20:20.120167 14847 net.cpp:408] conv3_3 -> conv3_3
I1001 13:20:20.127813 14847 net.cpp:150] Setting up conv3_3
I1001 13:20:20.127826 14847 net.cpp:157] Top shape: 40 256 75 75 (57600000)
I1001 13:20:20.127830 14847 net.cpp:165] Memory required for data: 7084800480
I1001 13:20:20.127837 14847 layer_factory.hpp:77] Creating layer relu3_3
I1001 13:20:20.127845 14847 net.cpp:100] Creating Layer relu3_3
I1001 13:20:20.127848 14847 net.cpp:434] relu3_3 <- conv3_3
I1001 13:20:20.127856 14847 net.cpp:395] relu3_3 -> conv3_3 (in-place)
I1001 13:20:20.127862 14847 net.cpp:150] Setting up relu3_3
I1001 13:20:20.127866 14847 net.cpp:157] Top shape: 40 256 75 75 (57600000)
I1001 13:20:20.127869 14847 net.cpp:165] Memory required for data: 7315200480
I1001 13:20:20.127872 14847 layer_factory.hpp:77] Creating layer pool3
I1001 13:20:20.127877 14847 net.cpp:100] Creating Layer pool3
I1001 13:20:20.127882 14847 net.cpp:434] pool3 <- conv3_3
I1001 13:20:20.127889 14847 net.cpp:408] pool3 -> pool3
I1001 13:20:20.127926 14847 net.cpp:150] Setting up pool3
I1001 13:20:20.127934 14847 net.cpp:157] Top shape: 40 256 38 38 (14786560)
I1001 13:20:20.127938 14847 net.cpp:165] Memory required for data: 7374346720
I1001 13:20:20.127943 14847 layer_factory.hpp:77] Creating layer conv4_1
I1001 13:20:20.127974 14847 net.cpp:100] Creating Layer conv4_1
I1001 13:20:20.127979 14847 net.cpp:434] conv4_1 <- pool3
I1001 13:20:20.127987 14847 net.cpp:408] conv4_1 -> conv4_1
I1001 13:20:20.143496 14847 net.cpp:150] Setting up conv4_1
I1001 13:20:20.143519 14847 net.cpp:157] Top shape: 40 512 38 38 (29573120)
I1001 13:20:20.143523 14847 net.cpp:165] Memory required for data: 7492639200
I1001 13:20:20.143533 14847 layer_factory.hpp:77] Creating layer relu4_1
I1001 13:20:20.143543 14847 net.cpp:100] Creating Layer relu4_1
I1001 13:20:20.143546 14847 net.cpp:434] relu4_1 <- conv4_1
I1001 13:20:20.143553 14847 net.cpp:395] relu4_1 -> conv4_1 (in-place)
I1001 13:20:20.143565 14847 net.cpp:150] Setting up relu4_1
I1001 13:20:20.143571 14847 net.cpp:157] Top shape: 40 512 38 38 (29573120)
I1001 13:20:20.143574 14847 net.cpp:165] Memory required for data: 7610931680
I1001 13:20:20.143577 14847 layer_factory.hpp:77] Creating layer conv4_2
I1001 13:20:20.143586 14847 net.cpp:100] Creating Layer conv4_2
I1001 13:20:20.143591 14847 net.cpp:434] conv4_2 <- conv4_1
I1001 13:20:20.143599 14847 net.cpp:408] conv4_2 -> conv4_2
I1001 13:20:20.173737 14847 net.cpp:150] Setting up conv4_2
I1001 13:20:20.173769 14847 net.cpp:157] Top shape: 40 512 38 38 (29573120)
I1001 13:20:20.173774 14847 net.cpp:165] Memory required for data: 7729224160
I1001 13:20:20.173792 14847 layer_factory.hpp:77] Creating layer relu4_2
I1001 13:20:20.173808 14847 net.cpp:100] Creating Layer relu4_2
I1001 13:20:20.173815 14847 net.cpp:434] relu4_2 <- conv4_2
I1001 13:20:20.173826 14847 net.cpp:395] relu4_2 -> conv4_2 (in-place)
I1001 13:20:20.173840 14847 net.cpp:150] Setting up relu4_2
I1001 13:20:20.173846 14847 net.cpp:157] Top shape: 40 512 38 38 (29573120)
I1001 13:20:20.173849 14847 net.cpp:165] Memory required for data: 7847516640
I1001 13:20:20.173854 14847 layer_factory.hpp:77] Creating layer conv4_3
I1001 13:20:20.173869 14847 net.cpp:100] Creating Layer conv4_3
I1001 13:20:20.173873 14847 net.cpp:434] conv4_3 <- conv4_2
I1001 13:20:20.173880 14847 net.cpp:408] conv4_3 -> conv4_3
I1001 13:20:20.203696 14847 net.cpp:150] Setting up conv4_3
I1001 13:20:20.203727 14847 net.cpp:157] Top shape: 40 512 38 38 (29573120)
I1001 13:20:20.203732 14847 net.cpp:165] Memory required for data: 7965809120
I1001 13:20:20.203745 14847 layer_factory.hpp:77] Creating layer relu4_3
I1001 13:20:20.203758 14847 net.cpp:100] Creating Layer relu4_3
I1001 13:20:20.203763 14847 net.cpp:434] relu4_3 <- conv4_3
I1001 13:20:20.203773 14847 net.cpp:395] relu4_3 -> conv4_3 (in-place)
I1001 13:20:20.203786 14847 net.cpp:150] Setting up relu4_3
I1001 13:20:20.203791 14847 net.cpp:157] Top shape: 40 512 38 38 (29573120)
I1001 13:20:20.203796 14847 net.cpp:165] Memory required for data: 8084101600
I1001 13:20:20.203799 14847 layer_factory.hpp:77] Creating layer pool4
I1001 13:20:20.203811 14847 net.cpp:100] Creating Layer pool4
I1001 13:20:20.203815 14847 net.cpp:434] pool4 <- conv4_3
I1001 13:20:20.203821 14847 net.cpp:408] pool4 -> pool4
I1001 13:20:20.203864 14847 net.cpp:150] Setting up pool4
I1001 13:20:20.203872 14847 net.cpp:157] Top shape: 40 512 19 19 (7393280)
I1001 13:20:20.203876 14847 net.cpp:165] Memory required for data: 8113674720
I1001 13:20:20.203881 14847 layer_factory.hpp:77] Creating layer conv5_1
I1001 13:20:20.203896 14847 net.cpp:100] Creating Layer conv5_1
I1001 13:20:20.203900 14847 net.cpp:434] conv5_1 <- pool4
I1001 13:20:20.203908 14847 net.cpp:408] conv5_1 -> conv5_1
I1001 13:20:20.233273 14847 net.cpp:150] Setting up conv5_1
I1001 13:20:20.233289 14847 net.cpp:157] Top shape: 40 512 19 19 (7393280)
I1001 13:20:20.233294 14847 net.cpp:165] Memory required for data: 8143247840
I1001 13:20:20.233301 14847 layer_factory.hpp:77] Creating layer relu5_1
I1001 13:20:20.233309 14847 net.cpp:100] Creating Layer relu5_1
I1001 13:20:20.233314 14847 net.cpp:434] relu5_1 <- conv5_1
I1001 13:20:20.233319 14847 net.cpp:395] relu5_1 -> conv5_1 (in-place)
I1001 13:20:20.233326 14847 net.cpp:150] Setting up relu5_1
I1001 13:20:20.233352 14847 net.cpp:157] Top shape: 40 512 19 19 (7393280)
I1001 13:20:20.233356 14847 net.cpp:165] Memory required for data: 8172820960
I1001 13:20:20.233361 14847 layer_factory.hpp:77] Creating layer conv5_2
I1001 13:20:20.233374 14847 net.cpp:100] Creating Layer conv5_2
I1001 13:20:20.233379 14847 net.cpp:434] conv5_2 <- conv5_1
I1001 13:20:20.233387 14847 net.cpp:408] conv5_2 -> conv5_2
I1001 13:20:20.265547 14847 net.cpp:150] Setting up conv5_2
I1001 13:20:20.265578 14847 net.cpp:157] Top shape: 40 512 19 19 (7393280)
I1001 13:20:20.265583 14847 net.cpp:165] Memory required for data: 8202394080
I1001 13:20:20.265596 14847 layer_factory.hpp:77] Creating layer relu5_2
I1001 13:20:20.265609 14847 net.cpp:100] Creating Layer relu5_2
I1001 13:20:20.265614 14847 net.cpp:434] relu5_2 <- conv5_2
I1001 13:20:20.265626 14847 net.cpp:395] relu5_2 -> conv5_2 (in-place)
I1001 13:20:20.265638 14847 net.cpp:150] Setting up relu5_2
I1001 13:20:20.265645 14847 net.cpp:157] Top shape: 40 512 19 19 (7393280)
I1001 13:20:20.265647 14847 net.cpp:165] Memory required for data: 8231967200
I1001 13:20:20.265655 14847 layer_factory.hpp:77] Creating layer conv5_3
I1001 13:20:20.265669 14847 net.cpp:100] Creating Layer conv5_3
I1001 13:20:20.265673 14847 net.cpp:434] conv5_3 <- conv5_2
I1001 13:20:20.265681 14847 net.cpp:408] conv5_3 -> conv5_3
I1001 13:20:20.298368 14847 net.cpp:150] Setting up conv5_3
I1001 13:20:20.298398 14847 net.cpp:157] Top shape: 40 512 19 19 (7393280)
I1001 13:20:20.298403 14847 net.cpp:165] Memory required for data: 8261540320
I1001 13:20:20.298414 14847 layer_factory.hpp:77] Creating layer relu5_3
I1001 13:20:20.298429 14847 net.cpp:100] Creating Layer relu5_3
I1001 13:20:20.298435 14847 net.cpp:434] relu5_3 <- conv5_3
I1001 13:20:20.298445 14847 net.cpp:395] relu5_3 -> conv5_3 (in-place)
I1001 13:20:20.298457 14847 net.cpp:150] Setting up relu5_3
I1001 13:20:20.298463 14847 net.cpp:157] Top shape: 40 512 19 19 (7393280)
I1001 13:20:20.298467 14847 net.cpp:165] Memory required for data: 8291113440
I1001 13:20:20.298470 14847 layer_factory.hpp:77] Creating layer pool5
I1001 13:20:20.298481 14847 net.cpp:100] Creating Layer pool5
I1001 13:20:20.298485 14847 net.cpp:434] pool5 <- conv5_3
I1001 13:20:20.298493 14847 net.cpp:408] pool5 -> pool5
I1001 13:20:20.298533 14847 net.cpp:150] Setting up pool5
I1001 13:20:20.298542 14847 net.cpp:157] Top shape: 40 512 10 10 (2048000)
I1001 13:20:20.298545 14847 net.cpp:165] Memory required for data: 8299305440
I1001 13:20:20.298549 14847 layer_factory.hpp:77] Creating layer fc6
I1001 13:20:20.298569 14847 net.cpp:100] Creating Layer fc6
I1001 13:20:20.298574 14847 net.cpp:434] fc6 <- pool5
I1001 13:20:20.298580 14847 net.cpp:408] fc6 -> fc6
I1001 13:20:20.301968 14847 net.cpp:150] Setting up fc6
I1001 13:20:20.301980 14847 net.cpp:157] Top shape: 40 5 (200)
I1001 13:20:20.301983 14847 net.cpp:165] Memory required for data: 8299306240
I1001 13:20:20.301990 14847 layer_factory.hpp:77] Creating layer fc6_fc6_0_split
I1001 13:20:20.301997 14847 net.cpp:100] Creating Layer fc6_fc6_0_split
I1001 13:20:20.302001 14847 net.cpp:434] fc6_fc6_0_split <- fc6
I1001 13:20:20.302006 14847 net.cpp:408] fc6_fc6_0_split -> fc6_fc6_0_split_0
I1001 13:20:20.302016 14847 net.cpp:408] fc6_fc6_0_split -> fc6_fc6_0_split_1
I1001 13:20:20.302049 14847 net.cpp:150] Setting up fc6_fc6_0_split
I1001 13:20:20.302057 14847 net.cpp:157] Top shape: 40 5 (200)
I1001 13:20:20.302062 14847 net.cpp:157] Top shape: 40 5 (200)
I1001 13:20:20.302065 14847 net.cpp:165] Memory required for data: 8299307840
I1001 13:20:20.302068 14847 layer_factory.hpp:77] Creating layer acc
I1001 13:20:20.302080 14847 net.cpp:100] Creating Layer acc
I1001 13:20:20.302085 14847 net.cpp:434] acc <- fc6_fc6_0_split_0
I1001 13:20:20.302089 14847 net.cpp:434] acc <- label_data_1_split_0
I1001 13:20:20.302095 14847 net.cpp:408] acc -> acc
…
