…
device_id: 1
train_state {
  level: 0
  stage: ""
}
iter_size: 4
snapshot_format: HDF5
rms_decay: 0.9
type: "RMSProp"
I1001 16:41:26.689292 13573 solver.cpp:81] Creating training net from train_net file: ConfFiles/proto.prototxt
I1001 16:41:26.690325 13573 net.cpp:58] Initializing net from parameters: 
name: "VGG16b"
state {
  phase: TRAIN
  level: 0
  stage: ""
}
layer {
  name: "data"
  type: "ROOTData"
  top: "data"
  top: "label"
  root_data_param {
    batch_size: 20
    filler_config: "ConfFiles/train.cfg"
    filler_name: "DataFiller"
  }
}
layer {
  name: "conv1_1"
  type: "Convolution"
  bottom: "data"
  top: "conv1_1"
  param {
    lr_mult: 1
    decay_mult: 1
  }
  param {
    lr_mult: 2
    decay_mult: 0
  }
  convolution_param {
    num_output: 64
    pad: 1
    kernel_size: 3
    stride: 2
    weight_filler {
      type: "msra"
    }
  }
}
layer {
  name: "relu1_1"
  type: "ReLU"
  bottom: "conv1_1"
  top: "conv1_1"
}
layer {
  name: "conv1_2"
  type: "Convolution"
  bottom: "conv1_1"
  top: "conv1_2"
  param {
    lr_mult: 1
    decay_mult: 1
  }
  param {
    lr_mult: 2
    decay_mult: 0
  }
  convolution_param {
    num_output: 64
    pad: 1
    kernel_size: 3
    stride: 1
    weight_filler {
      type: "msra"
    }
  }
}
layer {
  name: "relu1_2"
  type: "ReLU"
  bottom: "conv1_2"
  top: "conv1_2"
}
layer {
  name: "pool1"
  type: "Pooling"
  bottom: "conv1_2"
  top: "pool1"
  pooling_param {
    pool: MAX
    kernel_size: 2
    stride: 2
  }
}
layer {
  name: "conv2_1"
  type: "Convolution"
  bottom: "pool1"
  top: "conv2_1"
  param {
    lr_mult: 1
    decay_mult: 1
  }
  param {
    lr_mult: 2
    decay_mult: 0
  }
  convolution_param {
    num_output: 128
    pad: 1
    kernel_size: 3
    weight_filler {
      type: "msra"
    }
  }
}
layer {
  name: "relu2_1"
  type: "ReLU"
  bottom: "conv2_1"
  top: "conv2_1"
}
layer {
  name: "conv2_2"
  type: "Convolution"
  bottom: "conv2_1"
  top: "conv2_2"
  param {
    lr_mult: 1
    decay_mult: 1
  }
  param {
    lr_mult: 2
    decay_mult: 0
  }
  convolution_param {
    num_output: 128
    pad: 1
    kernel_size: 3
    weight_filler {
      type: "msra"
    }
  }
}
layer {
  name: "relu2_2"
  type: "ReLU"
  bottom: "conv2_2"
  top: "conv2_2"
}
layer {
  name: "pool2"
  type: "Pooling"
  bottom: "conv2_2"
  top: "pool2"
  pooling_param {
    pool: MAX
    kernel_size: 2
    stride: 2
  }
}
layer {
  name: "conv3_1"
  type: "Convolution"
  bottom: "pool2"
  top: "conv3_1"
  param {
    lr_mult: 1
    decay_mult: 1
  }
  param {
    lr_mult: 2
    decay_mult: 0
  }
  convolution_param {
    num_output: 256
    pad: 1
    kernel_size: 3
    weight_filler {
      type: "msra"
    }
  }
}
layer {
  name: "relu3_1"
  type: "ReLU"
  bottom: "conv3_1"
  top: "conv3_1"
}
layer {
  name: "conv3_2"
  type: "Convolution"
  bottom: "conv3_1"
  top: "conv3_2"
  param {
    lr_mult: 1
    decay_mult: 1
  }
  param {
    lr_mult: 2
    decay_mult: 0
  }
  convolution_param {
    num_output: 256
    pad: 1
    kernel_size: 3
    weight_filler {
      type: "msra"
    }
  }
}
layer {
  name: "relu3_2"
  type: "ReLU"
  bottom: "conv3_2"
  top: "conv3_2"
}
layer {
  name: "conv3_3"
  type: "Convolution"
  bottom: "conv3_2"
  top: "conv3_3"
  param {
    lr_mult: 1
    decay_mult: 1
  }
  param {
    lr_mult: 2
    decay_mult: 0
  }
  convolution_param {
    num_output: 256
    pad: 1
    kernel_size: 3
    weight_filler {
      type: "msra"
    }
  }
}
layer {
  name: "relu3_3"
  type: "ReLU"
  bottom: "conv3_3"
  top: "conv3_3"
}
layer {
  name: "pool3"
  type: "Pooling"
  bottom: "conv3_3"
  top: "pool3"
  pooling_param {
    pool: MAX
    kernel_size: 2
    stride: 2
  }
}
layer {
  name: "conv4_1"
  type: "Convolution"
  bottom: "pool3"
  top: "conv4_1"
  param {
    lr_mult: 1
    decay_mult: 1
  }
  param {
    lr_mult: 2
    decay_mult: 0
  }
  convolution_param {
    num_output: 512
    pad: 1
    kernel_size: 3
    weight_filler {
      type: "msra"
    }
  }
}
layer {
  name: "relu4_1"
  type: "ReLU"
  bottom: "conv4_1"
  top: "conv4_1"
}
layer {
  name: "conv4_2"
  type: "Convolution"
  bottom: "conv4_1"
  top: "conv4_2"
  param {
    lr_mult: 1
    decay_mult: 1
  }
  param {
    lr_mult: 2
    decay_mult: 0
  }
  convolution_param {
    num_output: 512
    pad: 1
    kernel_size: 3
    weight_filler {
      type: "msra"
    }
  }
}
layer {
  name: "relu4_2"
  type: "ReLU"
  bottom: "conv4_2"
  top: "conv4_2"
}
layer {
  name: "conv4_3"
  type: "Convolution"
  bottom: "conv4_2"
  top: "conv4_3"
  param {
    lr_mult: 1
    decay_mult: 1
  }
  param {
    lr_mult: 2
    decay_mult: 0
  }
  convolution_param {
    num_output: 512
    pad: 1
    kernel_size: 3
    weight_filler {
      type: "msra"
    }
  }
}
layer {
  name: "relu4_3"
  type: "ReLU"
  bottom: "conv4_3"
  top: "conv4_3"
}
layer {
  name: "pool4"
  type: "Pooling"
  bottom: "conv4_3"
  top: "pool4"
  pooling_param {
    pool: MAX
    kernel_size: 2
    stride: 2
  }
}
layer {
  name: "conv5_1"
  type: "Convolution"
  bottom: "pool4"
  top: "conv5_1"
  param {
    lr_mult: 1
    decay_mult: 1
  }
  param {
    lr_mult: 2
    decay_mult: 0
  }
  convolution_param {
    num_output: 512
    pad: 1
    kernel_size: 3
    weight_filler {
      type: "msra"
    }
  }
}
layer {
  name: "relu5_1"
  type: "ReLU"
  bottom: "conv5_1"
  top: "conv5_1"
}
layer {
  name: "conv5_2"
  type: "Convolution"
  bottom: "conv5_1"
  top: "conv5_2"
  param {
    lr_mult: 1
    decay_mult: 1
  }
  param {
    lr_mult: 2
    decay_mult: 0
  }
  convolution_param {
    num_output: 512
    pad: 1
    kernel_size: 3
    weight_filler {
      type: "msra"
    }
  }
}
layer {
  name: "relu5_2"
  type: "ReLU"
  bottom: "conv5_2"
  top: "conv5_2"
}
layer {
  name: "conv5_3"
  type: "Convolution"
  bottom: "conv5_2"
  top: "conv5_3"
  param {
    lr_mult: 1
    decay_mult: 1
  }
  param {
    lr_mult: 2
    decay_mult: 0
  }
  convolution_param {
    num_output: 512
    pad: 1
    kernel_size: 3
    weight_filler {
      type: "msra"
    }
  }
}
layer {
  name: "relu5_3"
  type: "ReLU"
  bottom: "conv5_3"
  top: "conv5_3"
}
layer {
  name: "pool5"
  type: "Pooling"
  bottom: "conv5_3"
  top: "pool5"
  pooling_param {
    pool: MAX
    kernel_size: 2
    stride: 2
  }
}
layer {
  name: "fc6"
  type: "InnerProduct"
  bottom: "pool5"
  top: "fc6"
  param {
    lr_mult: 1
    decay_mult: 1
  }
  param {
    lr_mult: 2
    decay_mult: 0
  }
  inner_product_param {
    num_output: 5
    weight_filler {
      type: "msra"
    }
  }
}
layer {
  name: "acc"
  type: "Accuracy"
  bottom: "fc6"
  bottom: "label"
  top: "acc"
}
layer {
  name: "sofmax"
  type: "Softmax"
  bottom: "fc6"
  top: "softmax"
}
I1001 16:41:26.690531 13573 layer_factory.hpp:77] Creating layer data
I1001 16:41:26.690558 13573 net.cpp:100] Creating Layer data
I1001 16:41:26.690568 13573 net.cpp:408] data -> data
I1001 16:41:26.690608 13573 net.cpp:408] data -> label
[93m setting verbosity [00m2
    [95m[NORMAL][00m [0m [94m<DataFillerProcessDriver::configure>[00m Instantiating Process ID=0 Type: SimpleFiller w/ Name: SimpleFiller
…
Error in <TCling::RegisterModule>: cannot find dictionary module PyUtilDict_rdict.pcm
Error in <TCling::RegisterModule>: cannot find dictionary module ProcessorDict_rdict.pcm
    [95m[NORMAL][00m [0m [94m<DataFillerIOManager::prepare_input>[00m Opening a file in READ mode: /hepgpu1-data2/hewes/for_abigail/atmo.root
    [95m[NORMAL][00m [0m [94m<DataFillerIOManager::prepare_input>[00m Opening a file in READ mode: /hepgpu1-data2/hewes/for_abigail/nnbar.root
    [95m[NORMAL][00m [0m [94m<DataFillerIOManager::initialize>[00m Prepared input with 23459 entries...
I1001 16:41:28.467000 13573 net.cpp:150] Setting up data
I1001 16:41:28.467062 13573 net.cpp:157] Top shape: 20 1 600 600 (7200000)
I1001 16:41:28.467069 13573 net.cpp:157] Top shape: 20 (20)
I1001 16:41:28.467073 13573 net.cpp:165] Memory required for data: 28800080
I1001 16:41:28.467094 13573 layer_factory.hpp:77] Creating layer conv1_1
I1001 16:41:28.467137 13573 net.cpp:100] Creating Layer conv1_1
I1001 16:41:28.467149 13573 net.cpp:434] conv1_1 <- data
I1001 16:41:28.467181 13573 net.cpp:408] conv1_1 -> conv1_1
I1001 16:41:28.469224 13573 net.cpp:150] Setting up conv1_1
I1001 16:41:28.469238 13573 net.cpp:157] Top shape: 20 64 300 300 (115200000)
I1001 16:41:28.469243 13573 net.cpp:165] Memory required for data: 489600080
I1001 16:41:28.469275 13573 layer_factory.hpp:77] Creating layer relu1_1
I1001 16:41:28.469288 13573 net.cpp:100] Creating Layer relu1_1
I1001 16:41:28.469293 13573 net.cpp:434] relu1_1 <- conv1_1
I1001 16:41:28.469321 13573 net.cpp:395] relu1_1 -> conv1_1 (in-place)
I1001 16:41:28.469333 13573 net.cpp:150] Setting up relu1_1
I1001 16:41:28.469341 13573 net.cpp:157] Top shape: 20 64 300 300 (115200000)
I1001 16:41:28.469344 13573 net.cpp:165] Memory required for data: 950400080
I1001 16:41:28.469350 13573 layer_factory.hpp:77] Creating layer conv1_2
I1001 16:41:28.469362 13573 net.cpp:100] Creating Layer conv1_2
I1001 16:41:28.469367 13573 net.cpp:434] conv1_2 <- conv1_1
I1001 16:41:28.469374 13573 net.cpp:408] conv1_2 -> conv1_2
I1001 16:41:28.470607 13573 net.cpp:150] Setting up conv1_2
I1001 16:41:28.470619 13573 net.cpp:157] Top shape: 20 64 300 300 (115200000)
I1001 16:41:28.470623 13573 net.cpp:165] Memory required for data: 1411200080
I1001 16:41:28.470633 13573 layer_factory.hpp:77] Creating layer relu1_2
I1001 16:41:28.470640 13573 net.cpp:100] Creating Layer relu1_2
I1001 16:41:28.470645 13573 net.cpp:434] relu1_2 <- conv1_2
I1001 16:41:28.470651 13573 net.cpp:395] relu1_2 -> conv1_2 (in-place)
I1001 16:41:28.470657 13573 net.cpp:150] Setting up relu1_2
I1001 16:41:28.470662 13573 net.cpp:157] Top shape: 20 64 300 300 (115200000)
I1001 16:41:28.470665 13573 net.cpp:165] Memory required for data: 1872000080
I1001 16:41:28.470669 13573 layer_factory.hpp:77] Creating layer pool1
I1001 16:41:28.470685 13573 net.cpp:100] Creating Layer pool1
I1001 16:41:28.470688 13573 net.cpp:434] pool1 <- conv1_2
I1001 16:41:28.470693 13573 net.cpp:408] pool1 -> pool1
I1001 16:41:28.470757 13573 net.cpp:150] Setting up pool1
I1001 16:41:28.470767 13573 net.cpp:157] Top shape: 20 64 150 150 (28800000)
I1001 16:41:28.470770 13573 net.cpp:165] Memory required for data: 1987200080
I1001 16:41:28.470773 13573 layer_factory.hpp:77] Creating layer conv2_1
I1001 16:41:28.470783 13573 net.cpp:100] Creating Layer conv2_1
I1001 16:41:28.470788 13573 net.cpp:434] conv2_1 <- pool1
I1001 16:41:28.470794 13573 net.cpp:408] conv2_1 -> conv2_1
I1001 16:41:28.471776 13573 net.cpp:150] Setting up conv2_1
I1001 16:41:28.471787 13573 net.cpp:157] Top shape: 20 128 150 150 (57600000)
I1001 16:41:28.471791 13573 net.cpp:165] Memory required for data: 2217600080
I1001 16:41:28.471803 13573 layer_factory.hpp:77] Creating layer relu2_1
I1001 16:41:28.471812 13573 net.cpp:100] Creating Layer relu2_1
I1001 16:41:28.471815 13573 net.cpp:434] relu2_1 <- conv2_1
I1001 16:41:28.471820 13573 net.cpp:395] relu2_1 -> conv2_1 (in-place)
I1001 16:41:28.471827 13573 net.cpp:150] Setting up relu2_1
I1001 16:41:28.471832 13573 net.cpp:157] Top shape: 20 128 150 150 (57600000)
I1001 16:41:28.471835 13573 net.cpp:165] Memory required for data: 2448000080
I1001 16:41:28.471838 13573 layer_factory.hpp:77] Creating layer conv2_2
I1001 16:41:28.471849 13573 net.cpp:100] Creating Layer conv2_2
I1001 16:41:28.471854 13573 net.cpp:434] conv2_2 <- conv2_1
I1001 16:41:28.471861 13573 net.cpp:408] conv2_2 -> conv2_2
I1001 16:41:28.474179 13573 net.cpp:150] Setting up conv2_2
I1001 16:41:28.474190 13573 net.cpp:157] Top shape: 20 128 150 150 (57600000)
I1001 16:41:28.474195 13573 net.cpp:165] Memory required for data: 2678400080
I1001 16:41:28.474202 13573 layer_factory.hpp:77] Creating layer relu2_2
I1001 16:41:28.474210 13573 net.cpp:100] Creating Layer relu2_2
I1001 16:41:28.474213 13573 net.cpp:434] relu2_2 <- conv2_2
I1001 16:41:28.474218 13573 net.cpp:395] relu2_2 -> conv2_2 (in-place)
I1001 16:41:28.474225 13573 net.cpp:150] Setting up relu2_2
I1001 16:41:28.474231 13573 net.cpp:157] Top shape: 20 128 150 150 (57600000)
I1001 16:41:28.474236 13573 net.cpp:165] Memory required for data: 2908800080
I1001 16:41:28.474239 13573 layer_factory.hpp:77] Creating layer pool2
I1001 16:41:28.474246 13573 net.cpp:100] Creating Layer pool2
I1001 16:41:28.474249 13573 net.cpp:434] pool2 <- conv2_2
I1001 16:41:28.474256 13573 net.cpp:408] pool2 -> pool2
I1001 16:41:28.474292 13573 net.cpp:150] Setting up pool2
I1001 16:41:28.474300 13573 net.cpp:157] Top shape: 20 128 75 75 (14400000)
I1001 16:41:28.474305 13573 net.cpp:165] Memory required for data: 2966400080
I1001 16:41:28.474325 13573 layer_factory.hpp:77] Creating layer conv3_1
I1001 16:41:28.474339 13573 net.cpp:100] Creating Layer conv3_1
I1001 16:41:28.474344 13573 net.cpp:434] conv3_1 <- pool2
I1001 16:41:28.474350 13573 net.cpp:408] conv3_1 -> conv3_1
I1001 16:41:28.478907 13573 net.cpp:150] Setting up conv3_1
I1001 16:41:28.478920 13573 net.cpp:157] Top shape: 20 256 75 75 (28800000)
I1001 16:41:28.478925 13573 net.cpp:165] Memory required for data: 3081600080
I1001 16:41:28.478935 13573 layer_factory.hpp:77] Creating layer relu3_1
I1001 16:41:28.478943 13573 net.cpp:100] Creating Layer relu3_1
I1001 16:41:28.478947 13573 net.cpp:434] relu3_1 <- conv3_1
I1001 16:41:28.478957 13573 net.cpp:395] relu3_1 -> conv3_1 (in-place)
I1001 16:41:28.478965 13573 net.cpp:150] Setting up relu3_1
I1001 16:41:28.478971 13573 net.cpp:157] Top shape: 20 256 75 75 (28800000)
I1001 16:41:28.478976 13573 net.cpp:165] Memory required for data: 3196800080
I1001 16:41:28.478979 13573 layer_factory.hpp:77] Creating layer conv3_2
I1001 16:41:28.478987 13573 net.cpp:100] Creating Layer conv3_2
I1001 16:41:28.478992 13573 net.cpp:434] conv3_2 <- conv3_1
I1001 16:41:28.478999 13573 net.cpp:408] conv3_2 -> conv3_2
I1001 16:41:28.486745 13573 net.cpp:150] Setting up conv3_2
I1001 16:41:28.486758 13573 net.cpp:157] Top shape: 20 256 75 75 (28800000)
I1001 16:41:28.486762 13573 net.cpp:165] Memory required for data: 3312000080
I1001 16:41:28.486773 13573 layer_factory.hpp:77] Creating layer relu3_2
I1001 16:41:28.486781 13573 net.cpp:100] Creating Layer relu3_2
I1001 16:41:28.486785 13573 net.cpp:434] relu3_2 <- conv3_2
I1001 16:41:28.486791 13573 net.cpp:395] relu3_2 -> conv3_2 (in-place)
I1001 16:41:28.486799 13573 net.cpp:150] Setting up relu3_2
I1001 16:41:28.486804 13573 net.cpp:157] Top shape: 20 256 75 75 (28800000)
I1001 16:41:28.486807 13573 net.cpp:165] Memory required for data: 3427200080
I1001 16:41:28.486810 13573 layer_factory.hpp:77] Creating layer conv3_3
I1001 16:41:28.486819 13573 net.cpp:100] Creating Layer conv3_3
I1001 16:41:28.486824 13573 net.cpp:434] conv3_3 <- conv3_2
I1001 16:41:28.486830 13573 net.cpp:408] conv3_3 -> conv3_3
I1001 16:41:28.494537 13573 net.cpp:150] Setting up conv3_3
I1001 16:41:28.494550 13573 net.cpp:157] Top shape: 20 256 75 75 (28800000)
I1001 16:41:28.494554 13573 net.cpp:165] Memory required for data: 3542400080
I1001 16:41:28.494562 13573 layer_factory.hpp:77] Creating layer relu3_3
I1001 16:41:28.494573 13573 net.cpp:100] Creating Layer relu3_3
I1001 16:41:28.494578 13573 net.cpp:434] relu3_3 <- conv3_3
I1001 16:41:28.494585 13573 net.cpp:395] relu3_3 -> conv3_3 (in-place)
I1001 16:41:28.494591 13573 net.cpp:150] Setting up relu3_3
I1001 16:41:28.494597 13573 net.cpp:157] Top shape: 20 256 75 75 (28800000)
I1001 16:41:28.494601 13573 net.cpp:165] Memory required for data: 3657600080
I1001 16:41:28.494603 13573 layer_factory.hpp:77] Creating layer pool3
I1001 16:41:28.494611 13573 net.cpp:100] Creating Layer pool3
I1001 16:41:28.494616 13573 net.cpp:434] pool3 <- conv3_3
I1001 16:41:28.494622 13573 net.cpp:408] pool3 -> pool3
I1001 16:41:28.494658 13573 net.cpp:150] Setting up pool3
I1001 16:41:28.494666 13573 net.cpp:157] Top shape: 20 256 38 38 (7393280)
I1001 16:41:28.494671 13573 net.cpp:165] Memory required for data: 3687173200
I1001 16:41:28.494678 13573 layer_factory.hpp:77] Creating layer conv4_1
I1001 16:41:28.494688 13573 net.cpp:100] Creating Layer conv4_1
I1001 16:41:28.494693 13573 net.cpp:434] conv4_1 <- pool3
I1001 16:41:28.494700 13573 net.cpp:408] conv4_1 -> conv4_1
I1001 16:41:28.510378 13573 net.cpp:150] Setting up conv4_1
I1001 16:41:28.510393 13573 net.cpp:157] Top shape: 20 512 38 38 (14786560)
I1001 16:41:28.510397 13573 net.cpp:165] Memory required for data: 3746319440
I1001 16:41:28.510406 13573 layer_factory.hpp:77] Creating layer relu4_1
I1001 16:41:28.510412 13573 net.cpp:100] Creating Layer relu4_1
I1001 16:41:28.510416 13573 net.cpp:434] relu4_1 <- conv4_1
I1001 16:41:28.510423 13573 net.cpp:395] relu4_1 -> conv4_1 (in-place)
I1001 16:41:28.510430 13573 net.cpp:150] Setting up relu4_1
I1001 16:41:28.510452 13573 net.cpp:157] Top shape: 20 512 38 38 (14786560)
I1001 16:41:28.510457 13573 net.cpp:165] Memory required for data: 3805465680
I1001 16:41:28.510460 13573 layer_factory.hpp:77] Creating layer conv4_2
I1001 16:41:28.510473 13573 net.cpp:100] Creating Layer conv4_2
I1001 16:41:28.510478 13573 net.cpp:434] conv4_2 <- conv4_1
I1001 16:41:28.510484 13573 net.cpp:408] conv4_2 -> conv4_2
I1001 16:41:28.540408 13573 net.cpp:150] Setting up conv4_2
I1001 16:41:28.540424 13573 net.cpp:157] Top shape: 20 512 38 38 (14786560)
I1001 16:41:28.540428 13573 net.cpp:165] Memory required for data: 3864611920
I1001 16:41:28.540441 13573 layer_factory.hpp:77] Creating layer relu4_2
I1001 16:41:28.540449 13573 net.cpp:100] Creating Layer relu4_2
I1001 16:41:28.540453 13573 net.cpp:434] relu4_2 <- conv4_2
I1001 16:41:28.540460 13573 net.cpp:395] relu4_2 -> conv4_2 (in-place)
I1001 16:41:28.540468 13573 net.cpp:150] Setting up relu4_2
I1001 16:41:28.540474 13573 net.cpp:157] Top shape: 20 512 38 38 (14786560)
I1001 16:41:28.540477 13573 net.cpp:165] Memory required for data: 3923758160
I1001 16:41:28.540484 13573 layer_factory.hpp:77] Creating layer conv4_3
I1001 16:41:28.540496 13573 net.cpp:100] Creating Layer conv4_3
I1001 16:41:28.540501 13573 net.cpp:434] conv4_3 <- conv4_2
I1001 16:41:28.540508 13573 net.cpp:408] conv4_3 -> conv4_3
I1001 16:41:28.570389 13573 net.cpp:150] Setting up conv4_3
I1001 16:41:28.570408 13573 net.cpp:157] Top shape: 20 512 38 38 (14786560)
I1001 16:41:28.570412 13573 net.cpp:165] Memory required for data: 3982904400
I1001 16:41:28.570421 13573 layer_factory.hpp:77] Creating layer relu4_3
I1001 16:41:28.570435 13573 net.cpp:100] Creating Layer relu4_3
I1001 16:41:28.570439 13573 net.cpp:434] relu4_3 <- conv4_3
I1001 16:41:28.570447 13573 net.cpp:395] relu4_3 -> conv4_3 (in-place)
I1001 16:41:28.570456 13573 net.cpp:150] Setting up relu4_3
I1001 16:41:28.570461 13573 net.cpp:157] Top shape: 20 512 38 38 (14786560)
I1001 16:41:28.570464 13573 net.cpp:165] Memory required for data: 4042050640
I1001 16:41:28.570467 13573 layer_factory.hpp:77] Creating layer pool4
I1001 16:41:28.570474 13573 net.cpp:100] Creating Layer pool4
I1001 16:41:28.570477 13573 net.cpp:434] pool4 <- conv4_3
I1001 16:41:28.570483 13573 net.cpp:408] pool4 -> pool4
I1001 16:41:28.570519 13573 net.cpp:150] Setting up pool4
I1001 16:41:28.570528 13573 net.cpp:157] Top shape: 20 512 19 19 (3696640)
I1001 16:41:28.570533 13573 net.cpp:165] Memory required for data: 4056837200
I1001 16:41:28.570536 13573 layer_factory.hpp:77] Creating layer conv5_1
I1001 16:41:28.570545 13573 net.cpp:100] Creating Layer conv5_1
I1001 16:41:28.570550 13573 net.cpp:434] conv5_1 <- pool4
I1001 16:41:28.570557 13573 net.cpp:408] conv5_1 -> conv5_1
I1001 16:41:28.600718 13573 net.cpp:150] Setting up conv5_1
I1001 16:41:28.600736 13573 net.cpp:157] Top shape: 20 512 19 19 (3696640)
I1001 16:41:28.600740 13573 net.cpp:165] Memory required for data: 4071623760
I1001 16:41:28.600752 13573 layer_factory.hpp:77] Creating layer relu5_1
I1001 16:41:28.600760 13573 net.cpp:100] Creating Layer relu5_1
I1001 16:41:28.600764 13573 net.cpp:434] relu5_1 <- conv5_1
I1001 16:41:28.600770 13573 net.cpp:395] relu5_1 -> conv5_1 (in-place)
I1001 16:41:28.600778 13573 net.cpp:150] Setting up relu5_1
I1001 16:41:28.600785 13573 net.cpp:157] Top shape: 20 512 19 19 (3696640)
I1001 16:41:28.600788 13573 net.cpp:165] Memory required for data: 4086410320
I1001 16:41:28.600791 13573 layer_factory.hpp:77] Creating layer conv5_2
I1001 16:41:28.600802 13573 net.cpp:100] Creating Layer conv5_2
I1001 16:41:28.600807 13573 net.cpp:434] conv5_2 <- conv5_1
I1001 16:41:28.600814 13573 net.cpp:408] conv5_2 -> conv5_2
I1001 16:41:28.630765 13573 net.cpp:150] Setting up conv5_2
I1001 16:41:28.630782 13573 net.cpp:157] Top shape: 20 512 19 19 (3696640)
I1001 16:41:28.630787 13573 net.cpp:165] Memory required for data: 4101196880
I1001 16:41:28.630795 13573 layer_factory.hpp:77] Creating layer relu5_2
I1001 16:41:28.630802 13573 net.cpp:100] Creating Layer relu5_2
I1001 16:41:28.630831 13573 net.cpp:434] relu5_2 <- conv5_2
I1001 16:41:28.630838 13573 net.cpp:395] relu5_2 -> conv5_2 (in-place)
I1001 16:41:28.630848 13573 net.cpp:150] Setting up relu5_2
I1001 16:41:28.630856 13573 net.cpp:157] Top shape: 20 512 19 19 (3696640)
I1001 16:41:28.630859 13573 net.cpp:165] Memory required for data: 4115983440
I1001 16:41:28.630867 13573 layer_factory.hpp:77] Creating layer conv5_3
I1001 16:41:28.630877 13573 net.cpp:100] Creating Layer conv5_3
I1001 16:41:28.630882 13573 net.cpp:434] conv5_3 <- conv5_2
I1001 16:41:28.630888 13573 net.cpp:408] conv5_3 -> conv5_3
I1001 16:41:28.660881 13573 net.cpp:150] Setting up conv5_3
I1001 16:41:28.660899 13573 net.cpp:157] Top shape: 20 512 19 19 (3696640)
I1001 16:41:28.660903 13573 net.cpp:165] Memory required for data: 4130770000
I1001 16:41:28.660912 13573 layer_factory.hpp:77] Creating layer relu5_3
I1001 16:41:28.660919 13573 net.cpp:100] Creating Layer relu5_3
I1001 16:41:28.660923 13573 net.cpp:434] relu5_3 <- conv5_3
I1001 16:41:28.660930 13573 net.cpp:395] relu5_3 -> conv5_3 (in-place)
I1001 16:41:28.660939 13573 net.cpp:150] Setting up relu5_3
I1001 16:41:28.660944 13573 net.cpp:157] Top shape: 20 512 19 19 (3696640)
I1001 16:41:28.660948 13573 net.cpp:165] Memory required for data: 4145556560
I1001 16:41:28.660955 13573 layer_factory.hpp:77] Creating layer pool5
I1001 16:41:28.660964 13573 net.cpp:100] Creating Layer pool5
I1001 16:41:28.660967 13573 net.cpp:434] pool5 <- conv5_3
I1001 16:41:28.660974 13573 net.cpp:408] pool5 -> pool5
I1001 16:41:28.661012 13573 net.cpp:150] Setting up pool5
I1001 16:41:28.661021 13573 net.cpp:157] Top shape: 20 512 10 10 (1024000)
I1001 16:41:28.661026 13573 net.cpp:165] Memory required for data: 4149652560
I1001 16:41:28.661029 13573 layer_factory.hpp:77] Creating layer fc6
I1001 16:41:28.661049 13573 net.cpp:100] Creating Layer fc6
I1001 16:41:28.661054 13573 net.cpp:434] fc6 <- pool5
I1001 16:41:28.661062 13573 net.cpp:408] fc6 -> fc6
I1001 16:41:28.664412 13573 net.cpp:150] Setting up fc6
I1001 16:41:28.664424 13573 net.cpp:157] Top shape: 20 5 (100)
I1001 16:41:28.664427 13573 net.cpp:165] Memory required for data: 4149652960
I1001 16:41:28.664435 13573 layer_factory.hpp:77] Creating layer fc6_fc6_0_split
I1001 16:41:28.664443 13573 net.cpp:100] Creating Layer fc6_fc6_0_split
I1001 16:41:28.664448 13573 net.cpp:434] fc6_fc6_0_split <- fc6
I1001 16:41:28.664453 13573 net.cpp:408] fc6_fc6_0_split -> fc6_fc6_0_split_0
I1001 16:41:28.664461 13573 net.cpp:408] fc6_fc6_0_split -> fc6_fc6_0_split_1
I1001 16:41:28.664497 13573 net.cpp:150] Setting up fc6_fc6_0_split
I1001 16:41:28.664506 13573 net.cpp:157] Top shape: 20 5 (100)
I1001 16:41:28.664511 13573 net.cpp:157] Top shape: 20 5 (100)
I1001 16:41:28.664515 13573 net.cpp:165] Memory required for data: 4149653760
I1001 16:41:28.664520 13573 layer_factory.hpp:77] Creating layer acc
I1001 16:41:28.664530 13573 net.cpp:100] Creating Layer acc
I1001 16:41:28.664535 13573 net.cpp:434] acc <- fc6_fc6_0_split_0
I1001 16:41:28.664541 13573 net.cpp:434] acc <- label
I1001 16:41:28.664547 13573 net.cpp:408] acc -> acc
I1001 16:41:28.664561 13573 net.cpp:150] Setting up acc
I1001 16:41:28.664566 13573 net.cpp:157] Top shape: (1)
I1001 16:41:28.664571 13573 net.cpp:165] Memory required for data: 4149653764
I1001 16:41:28.664574 13573 layer_factory.hpp:77] Creating layer sofmax
I1001 16:41:28.664580 13573 net.cpp:100] Creating Layer sofmax
I1001 16:41:28.664584 13573 net.cpp:434] sofmax <- fc6_fc6_0_split_1
I1001 16:41:28.664590 13573 net.cpp:408] sofmax -> softmax
I1001 16:41:28.664644 13573 net.cpp:150] Setting up sofmax
I1001 16:41:28.664651 13573 net.cpp:157] Top shape: 20 5 (100)
I1001 16:41:28.664656 13573 net.cpp:165] Memory required for data: 4149654164
I1001 16:41:28.664659 13573 net.cpp:228] sofmax does not need backward computation.
I1001 16:41:28.664664 13573 net.cpp:228] acc does not need backward computation.
I1001 16:41:28.664669 13573 net.cpp:228] fc6_fc6_0_split does not need backward computation.
I1001 16:41:28.664671 13573 net.cpp:228] fc6 does not need backward computation.
…
