…
device_id: 1
train_state {
  level: 0
  stage: ""
}
iter_size: 4
snapshot_format: HDF5
rms_decay: 0.9
type: "RMSProp"
I1001 13:47:04.599058 16266 solver.cpp:81] Creating training net from train_net file: ConfFiles/proto.prototxt
I1001 13:47:04.600257 16266 net.cpp:58] Initializing net from parameters: 
name: "VGG16b"
state {
  phase: TRAIN
  level: 0
  stage: ""
}
layer {
  name: "data"
  type: "ROOTData"
  top: "data"
  top: "label"
  root_data_param {
    batch_size: 40
    filler_config: "ConfFiles/train.cfg"
    filler_name: "DataFiller"
  }
}
layer {
  name: "conv1_1"
  type: "Convolution"
  bottom: "data"
  top: "conv1_1"
  param {
    lr_mult: 1
    decay_mult: 1
  }
  param {
    lr_mult: 2
    decay_mult: 0
  }
  convolution_param {
    num_output: 64
    pad: 1
    kernel_size: 3
    stride: 2
    weight_filler {
      type: "msra"
    }
  }
}
layer {
  name: "relu1_1"
  type: "ReLU"
  bottom: "conv1_1"
  top: "conv1_1"
}
layer {
  name: "conv1_2"
  type: "Convolution"
  bottom: "conv1_1"
  top: "conv1_2"
  param {
    lr_mult: 1
    decay_mult: 1
  }
  param {
    lr_mult: 2
    decay_mult: 0
  }
  convolution_param {
    num_output: 64
    pad: 1
    kernel_size: 3
    stride: 1
    weight_filler {
      type: "msra"
    }
  }
}
layer {
  name: "relu1_2"
  type: "ReLU"
  bottom: "conv1_2"
  top: "conv1_2"
}
layer {
  name: "pool1"
  type: "Pooling"
  bottom: "conv1_2"
  top: "pool1"
  pooling_param {
    pool: MAX
    kernel_size: 2
    stride: 2
  }
}
layer {
  name: "conv2_1"
  type: "Convolution"
  bottom: "pool1"
  top: "conv2_1"
  param {
    lr_mult: 1
    decay_mult: 1
  }
  param {
    lr_mult: 2
    decay_mult: 0
  }
  convolution_param {
    num_output: 128
    pad: 1
    kernel_size: 3
    weight_filler {
      type: "msra"
    }
  }
}
layer {
  name: "relu2_1"
  type: "ReLU"
  bottom: "conv2_1"
  top: "conv2_1"
}
layer {
  name: "conv2_2"
  type: "Convolution"
  bottom: "conv2_1"
  top: "conv2_2"
  param {
    lr_mult: 1
    decay_mult: 1
  }
  param {
    lr_mult: 2
    decay_mult: 0
  }
  convolution_param {
    num_output: 128
    pad: 1
    kernel_size: 3
    weight_filler {
      type: "msra"
    }
  }
}
layer {
  name: "relu2_2"
  type: "ReLU"
  bottom: "conv2_2"
  top: "conv2_2"
}
layer {
  name: "pool2"
  type: "Pooling"
  bottom: "conv2_2"
  top: "pool2"
  pooling_param {
    pool: MAX
    kernel_size: 2
    stride: 2
  }
}
layer {
  name: "conv3_1"
  type: "Convolution"
  bottom: "pool2"
  top: "conv3_1"
  param {
    lr_mult: 1
    decay_mult: 1
  }
  param {
    lr_mult: 2
    decay_mult: 0
  }
  convolution_param {
    num_output: 256
    pad: 1
    kernel_size: 3
    weight_filler {
      type: "msra"
    }
  }
}
layer {
  name: "relu3_1"
  type: "ReLU"
  bottom: "conv3_1"
  top: "conv3_1"
}
layer {
  name: "conv3_2"
  type: "Convolution"
  bottom: "conv3_1"
  top: "conv3_2"
  param {
    lr_mult: 1
    decay_mult: 1
  }
  param {
    lr_mult: 2
    decay_mult: 0
  }
  convolution_param {
    num_output: 256
    pad: 1
    kernel_size: 3
    weight_filler {
      type: "msra"
    }
  }
}
layer {
  name: "relu3_2"
  type: "ReLU"
  bottom: "conv3_2"
  top: "conv3_2"
}
layer {
  name: "conv3_3"
  type: "Convolution"
  bottom: "conv3_2"
  top: "conv3_3"
  param {
    lr_mult: 1
    decay_mult: 1
  }
  param {
    lr_mult: 2
    decay_mult: 0
  }
  convolution_param {
    num_output: 256
    pad: 1
    kernel_size: 3
    weight_filler {
      type: "msra"
    }
  }
}
layer {
  name: "relu3_3"
  type: "ReLU"
  bottom: "conv3_3"
  top: "conv3_3"
}
layer {
  name: "pool3"
  type: "Pooling"
  bottom: "conv3_3"
  top: "pool3"
  pooling_param {
    pool: MAX
    kernel_size: 2
    stride: 2
  }
}
layer {
  name: "conv4_1"
  type: "Convolution"
  bottom: "pool3"
  top: "conv4_1"
  param {
    lr_mult: 1
    decay_mult: 1
  }
  param {
    lr_mult: 2
    decay_mult: 0
  }
  convolution_param {
    num_output: 512
    pad: 1
    kernel_size: 3
    weight_filler {
      type: "msra"
    }
  }
}
layer {
  name: "relu4_1"
  type: "ReLU"
  bottom: "conv4_1"
  top: "conv4_1"
}
layer {
  name: "conv4_2"
  type: "Convolution"
  bottom: "conv4_1"
  top: "conv4_2"
  param {
    lr_mult: 1
    decay_mult: 1
  }
  param {
    lr_mult: 2
    decay_mult: 0
  }
  convolution_param {
    num_output: 512
    pad: 1
    kernel_size: 3
    weight_filler {
      type: "msra"
    }
  }
}
layer {
  name: "relu4_2"
  type: "ReLU"
  bottom: "conv4_2"
  top: "conv4_2"
}
layer {
  name: "conv4_3"
  type: "Convolution"
  bottom: "conv4_2"
  top: "conv4_3"
  param {
    lr_mult: 1
    decay_mult: 1
  }
  param {
    lr_mult: 2
    decay_mult: 0
  }
  convolution_param {
    num_output: 512
    pad: 1
    kernel_size: 3
    weight_filler {
      type: "msra"
    }
  }
}
layer {
  name: "relu4_3"
  type: "ReLU"
  bottom: "conv4_3"
  top: "conv4_3"
}
layer {
  name: "pool4"
  type: "Pooling"
  bottom: "conv4_3"
  top: "pool4"
  pooling_param {
    pool: MAX
    kernel_size: 2
    stride: 2
  }
}
layer {
  name: "conv5_1"
  type: "Convolution"
  bottom: "pool4"
  top: "conv5_1"
  param {
    lr_mult: 1
    decay_mult: 1
  }
  param {
    lr_mult: 2
    decay_mult: 0
  }
  convolution_param {
    num_output: 512
    pad: 1
    kernel_size: 3
    weight_filler {
      type: "msra"
    }
  }
}
layer {
  name: "relu5_1"
  type: "ReLU"
  bottom: "conv5_1"
  top: "conv5_1"
}
layer {
  name: "conv5_2"
  type: "Convolution"
  bottom: "conv5_1"
  top: "conv5_2"
  param {
    lr_mult: 1
    decay_mult: 1
  }
  param {
    lr_mult: 2
    decay_mult: 0
  }
  convolution_param {
    num_output: 512
    pad: 1
    kernel_size: 3
    weight_filler {
      type: "msra"
    }
  }
}
layer {
  name: "relu5_2"
  type: "ReLU"
  bottom: "conv5_2"
  top: "conv5_2"
}
layer {
  name: "conv5_3"
  type: "Convolution"
  bottom: "conv5_2"
  top: "conv5_3"
  param {
    lr_mult: 1
    decay_mult: 1
  }
  param {
    lr_mult: 2
    decay_mult: 0
  }
  convolution_param {
    num_output: 512
    pad: 1
    kernel_size: 3
    weight_filler {
      type: "msra"
    }
  }
}
layer {
  name: "relu5_3"
  type: "ReLU"
  bottom: "conv5_3"
  top: "conv5_3"
}
layer {
  name: "pool5"
  type: "Pooling"
  bottom: "conv5_3"
  top: "pool5"
  pooling_param {
    pool: MAX
    kernel_size: 2
    stride: 2
  }
}
layer {
  name: "fc6"
  type: "InnerProduct"
  bottom: "pool5"
  top: "fc6"
  param {
    lr_mult: 1
    decay_mult: 1
  }
  param {
    lr_mult: 2
    decay_mult: 0
  }
  inner_product_param {
    num_output: 5
    weight_filler {
      type: "msra"
    }
  }
}
layer {
  name: "acc"
  type: "Accuracy"
  bottom: "fc6"
  bottom: "label"
  top: "acc"
}
layer {
  name: "loss"
  type: "SoftmaxWithLoss"
  bottom: "fc6"
  bottom: "label"
  top: "loss"
}
I1001 13:47:04.600488 16266 layer_factory.hpp:77] Creating layer data
I1001 13:47:04.600517 16266 net.cpp:100] Creating Layer data
I1001 13:47:04.600528 16266 net.cpp:408] data -> data
I1001 13:47:04.600566 16266 net.cpp:408] data -> label
[93m setting verbosity [00m2
    [95m[NORMAL][00m [0m [94m<DataFillerProcessDriver::configure>[00m Instantiating Process ID=0 Type: SimpleFiller w/ Name: SimpleFiller
…
Error in <TCling::RegisterModule>: cannot find dictionary module ProcessorDict_rdict.pcm
    [95m[NORMAL][00m [0m [94m<DataFillerIOManager::prepare_input>[00m Opening a file in READ mode: /hepgpu1-data2/hewes/for_abigail/atmo.root
    [95m[NORMAL][00m [0m [94m<DataFillerIOManager::prepare_input>[00m Opening a file in READ mode: /hepgpu1-data2/hewes/for_abigail/nnbar.root
    [95m[NORMAL][00m [0m [94m<DataFillerIOManager::initialize>[00m Prepared input with 23459 entries...
I1001 13:47:06.976394 16266 heproot.cpp:20] Queuing data... (1 sec.)
I1001 13:47:07.520632 16266 net.cpp:150] Setting up data
I1001 13:47:07.520679 16266 net.cpp:157] Top shape: 40 1 600 600 (14400000)
I1001 13:47:07.520691 16266 net.cpp:157] Top shape: 40 (40)
I1001 13:47:07.520699 16266 net.cpp:165] Memory required for data: 57600160
I1001 13:47:07.520717 16266 layer_factory.hpp:77] Creating layer label_data_1_split
I1001 13:47:07.520740 16266 net.cpp:100] Creating Layer label_data_1_split
I1001 13:47:07.520753 16266 net.cpp:434] label_data_1_split <- label
I1001 13:47:07.520795 16266 net.cpp:408] label_data_1_split -> label_data_1_split_0
I1001 13:47:07.520817 16266 net.cpp:408] label_data_1_split -> label_data_1_split_1
I1001 13:47:07.520869 16266 net.cpp:150] Setting up label_data_1_split
I1001 13:47:07.520879 16266 net.cpp:157] Top shape: 40 (40)
I1001 13:47:07.520887 16266 net.cpp:157] Top shape: 40 (40)
I1001 13:47:07.520937 16266 net.cpp:165] Memory required for data: 57600480
I1001 13:47:07.520946 16266 layer_factory.hpp:77] Creating layer conv1_1
I1001 13:47:07.520984 16266 net.cpp:100] Creating Layer conv1_1
I1001 13:47:07.520992 16266 net.cpp:434] conv1_1 <- data
I1001 13:47:07.521008 16266 net.cpp:408] conv1_1 -> conv1_1
I1001 13:47:07.523376 16266 net.cpp:150] Setting up conv1_1
I1001 13:47:07.523393 16266 net.cpp:157] Top shape: 40 64 300 300 (230400000)
I1001 13:47:07.523399 16266 net.cpp:165] Memory required for data: 979200480
I1001 13:47:07.523438 16266 layer_factory.hpp:77] Creating layer relu1_1
I1001 13:47:07.523455 16266 net.cpp:100] Creating Layer relu1_1
I1001 13:47:07.523463 16266 net.cpp:434] relu1_1 <- conv1_1
I1001 13:47:07.523476 16266 net.cpp:395] relu1_1 -> conv1_1 (in-place)
I1001 13:47:07.523488 16266 net.cpp:150] Setting up relu1_1
I1001 13:47:07.523499 16266 net.cpp:157] Top shape: 40 64 300 300 (230400000)
I1001 13:47:07.523506 16266 net.cpp:165] Memory required for data: 1900800480
I1001 13:47:07.523516 16266 layer_factory.hpp:77] Creating layer conv1_2
I1001 13:47:07.523533 16266 net.cpp:100] Creating Layer conv1_2
I1001 13:47:07.523540 16266 net.cpp:434] conv1_2 <- conv1_1
I1001 13:47:07.523555 16266 net.cpp:408] conv1_2 -> conv1_2
I1001 13:47:07.524916 16266 net.cpp:150] Setting up conv1_2
I1001 13:47:07.524932 16266 net.cpp:157] Top shape: 40 64 300 300 (230400000)
I1001 13:47:07.524938 16266 net.cpp:165] Memory required for data: 2822400480
I1001 13:47:07.524955 16266 layer_factory.hpp:77] Creating layer relu1_2
I1001 13:47:07.524966 16266 net.cpp:100] Creating Layer relu1_2
I1001 13:47:07.524973 16266 net.cpp:434] relu1_2 <- conv1_2
I1001 13:47:07.524986 16266 net.cpp:395] relu1_2 -> conv1_2 (in-place)
I1001 13:47:07.524998 16266 net.cpp:150] Setting up relu1_2
I1001 13:47:07.525009 16266 net.cpp:157] Top shape: 40 64 300 300 (230400000)
I1001 13:47:07.525017 16266 net.cpp:165] Memory required for data: 3744000480
I1001 13:47:07.525023 16266 layer_factory.hpp:77] Creating layer pool1
I1001 13:47:07.525043 16266 net.cpp:100] Creating Layer pool1
I1001 13:47:07.525049 16266 net.cpp:434] pool1 <- conv1_2
I1001 13:47:07.525061 16266 net.cpp:408] pool1 -> pool1
I1001 13:47:07.525132 16266 net.cpp:150] Setting up pool1
I1001 13:47:07.525144 16266 net.cpp:157] Top shape: 40 64 150 150 (57600000)
I1001 13:47:07.525151 16266 net.cpp:165] Memory required for data: 3974400480
I1001 13:47:07.525173 16266 layer_factory.hpp:77] Creating layer conv2_1
I1001 13:47:07.525192 16266 net.cpp:100] Creating Layer conv2_1
I1001 13:47:07.525198 16266 net.cpp:434] conv2_1 <- pool1
I1001 13:47:07.525213 16266 net.cpp:408] conv2_1 -> conv2_1
I1001 13:47:07.526190 16266 net.cpp:150] Setting up conv2_1
I1001 13:47:07.526203 16266 net.cpp:157] Top shape: 40 128 150 150 (115200000)
I1001 13:47:07.526209 16266 net.cpp:165] Memory required for data: 4435200480
I1001 13:47:07.526228 16266 layer_factory.hpp:77] Creating layer relu2_1
I1001 13:47:07.526239 16266 net.cpp:100] Creating Layer relu2_1
I1001 13:47:07.526247 16266 net.cpp:434] relu2_1 <- conv2_1
I1001 13:47:07.526263 16266 net.cpp:395] relu2_1 -> conv2_1 (in-place)
I1001 13:47:07.526274 16266 net.cpp:150] Setting up relu2_1
I1001 13:47:07.526284 16266 net.cpp:157] Top shape: 40 128 150 150 (115200000)
I1001 13:47:07.526291 16266 net.cpp:165] Memory required for data: 4896000480
I1001 13:47:07.526298 16266 layer_factory.hpp:77] Creating layer conv2_2
I1001 13:47:07.526314 16266 net.cpp:100] Creating Layer conv2_2
I1001 13:47:07.526320 16266 net.cpp:434] conv2_2 <- conv2_1
I1001 13:47:07.526335 16266 net.cpp:408] conv2_2 -> conv2_2
I1001 13:47:07.528865 16266 net.cpp:150] Setting up conv2_2
I1001 13:47:07.528880 16266 net.cpp:157] Top shape: 40 128 150 150 (115200000)
I1001 13:47:07.528887 16266 net.cpp:165] Memory required for data: 5356800480
I1001 13:47:07.528900 16266 layer_factory.hpp:77] Creating layer relu2_2
I1001 13:47:07.528911 16266 net.cpp:100] Creating Layer relu2_2
I1001 13:47:07.528919 16266 net.cpp:434] relu2_2 <- conv2_2
I1001 13:47:07.528942 16266 net.cpp:395] relu2_2 -> conv2_2 (in-place)
I1001 13:47:07.528959 16266 net.cpp:150] Setting up relu2_2
I1001 13:47:07.528970 16266 net.cpp:157] Top shape: 40 128 150 150 (115200000)
I1001 13:47:07.528976 16266 net.cpp:165] Memory required for data: 5817600480
I1001 13:47:07.528986 16266 layer_factory.hpp:77] Creating layer pool2
I1001 13:47:07.528996 16266 net.cpp:100] Creating Layer pool2
I1001 13:47:07.529003 16266 net.cpp:434] pool2 <- conv2_2
I1001 13:47:07.529012 16266 net.cpp:408] pool2 -> pool2
I1001 13:47:07.529058 16266 net.cpp:150] Setting up pool2
I1001 13:47:07.529070 16266 net.cpp:157] Top shape: 40 128 75 75 (28800000)
I1001 13:47:07.529075 16266 net.cpp:165] Memory required for data: 5932800480
I1001 13:47:07.529081 16266 layer_factory.hpp:77] Creating layer conv3_1
I1001 13:47:07.529103 16266 net.cpp:100] Creating Layer conv3_1
I1001 13:47:07.529112 16266 net.cpp:434] conv3_1 <- pool2
I1001 13:47:07.529127 16266 net.cpp:408] conv3_1 -> conv3_1
I1001 13:47:07.533850 16266 net.cpp:150] Setting up conv3_1
I1001 13:47:07.533872 16266 net.cpp:157] Top shape: 40 256 75 75 (57600000)
I1001 13:47:07.533879 16266 net.cpp:165] Memory required for data: 6163200480
I1001 13:47:07.533895 16266 layer_factory.hpp:77] Creating layer relu3_1
I1001 13:47:07.533905 16266 net.cpp:100] Creating Layer relu3_1
I1001 13:47:07.533913 16266 net.cpp:434] relu3_1 <- conv3_1
I1001 13:47:07.533922 16266 net.cpp:395] relu3_1 -> conv3_1 (in-place)
I1001 13:47:07.533936 16266 net.cpp:150] Setting up relu3_1
I1001 13:47:07.533946 16266 net.cpp:157] Top shape: 40 256 75 75 (57600000)
I1001 13:47:07.533951 16266 net.cpp:165] Memory required for data: 6393600480
I1001 13:47:07.533958 16266 layer_factory.hpp:77] Creating layer conv3_2
I1001 13:47:07.533973 16266 net.cpp:100] Creating Layer conv3_2
I1001 13:47:07.533980 16266 net.cpp:434] conv3_2 <- conv3_1
I1001 13:47:07.533994 16266 net.cpp:408] conv3_2 -> conv3_2
I1001 13:47:07.542361 16266 net.cpp:150] Setting up conv3_2
I1001 13:47:07.542378 16266 net.cpp:157] Top shape: 40 256 75 75 (57600000)
I1001 13:47:07.542385 16266 net.cpp:165] Memory required for data: 6624000480
I1001 13:47:07.542400 16266 layer_factory.hpp:77] Creating layer relu3_2
I1001 13:47:07.542413 16266 net.cpp:100] Creating Layer relu3_2
I1001 13:47:07.542423 16266 net.cpp:434] relu3_2 <- conv3_2
I1001 13:47:07.542431 16266 net.cpp:395] relu3_2 -> conv3_2 (in-place)
I1001 13:47:07.542444 16266 net.cpp:150] Setting up relu3_2
I1001 13:47:07.542454 16266 net.cpp:157] Top shape: 40 256 75 75 (57600000)
I1001 13:47:07.542461 16266 net.cpp:165] Memory required for data: 6854400480
I1001 13:47:07.542469 16266 layer_factory.hpp:77] Creating layer conv3_3
I1001 13:47:07.542485 16266 net.cpp:100] Creating Layer conv3_3
I1001 13:47:07.542492 16266 net.cpp:434] conv3_3 <- conv3_2
I1001 13:47:07.542506 16266 net.cpp:408] conv3_3 -> conv3_3
I1001 13:47:07.550851 16266 net.cpp:150] Setting up conv3_3
I1001 13:47:07.550866 16266 net.cpp:157] Top shape: 40 256 75 75 (57600000)
I1001 13:47:07.550873 16266 net.cpp:165] Memory required for data: 7084800480
I1001 13:47:07.550885 16266 layer_factory.hpp:77] Creating layer relu3_3
I1001 13:47:07.550900 16266 net.cpp:100] Creating Layer relu3_3
I1001 13:47:07.550909 16266 net.cpp:434] relu3_3 <- conv3_3
I1001 13:47:07.550920 16266 net.cpp:395] relu3_3 -> conv3_3 (in-place)
I1001 13:47:07.550931 16266 net.cpp:150] Setting up relu3_3
I1001 13:47:07.550941 16266 net.cpp:157] Top shape: 40 256 75 75 (57600000)
I1001 13:47:07.550948 16266 net.cpp:165] Memory required for data: 7315200480
I1001 13:47:07.550956 16266 layer_factory.hpp:77] Creating layer pool3
I1001 13:47:07.550964 16266 net.cpp:100] Creating Layer pool3
I1001 13:47:07.550972 16266 net.cpp:434] pool3 <- conv3_3
I1001 13:47:07.550985 16266 net.cpp:408] pool3 -> pool3
I1001 13:47:07.551030 16266 net.cpp:150] Setting up pool3
I1001 13:47:07.551043 16266 net.cpp:157] Top shape: 40 256 38 38 (14786560)
I1001 13:47:07.551048 16266 net.cpp:165] Memory required for data: 7374346720
I1001 13:47:07.551059 16266 layer_factory.hpp:77] Creating layer conv4_1
I1001 13:47:07.551093 16266 net.cpp:100] Creating Layer conv4_1
I1001 13:47:07.551102 16266 net.cpp:434] conv4_1 <- pool3
I1001 13:47:07.551117 16266 net.cpp:408] conv4_1 -> conv4_1
I1001 13:47:07.568557 16266 net.cpp:150] Setting up conv4_1
I1001 13:47:07.568590 16266 net.cpp:157] Top shape: 40 512 38 38 (29573120)
I1001 13:47:07.568598 16266 net.cpp:165] Memory required for data: 7492639200
I1001 13:47:07.568616 16266 layer_factory.hpp:77] Creating layer relu4_1
I1001 13:47:07.568634 16266 net.cpp:100] Creating Layer relu4_1
I1001 13:47:07.568644 16266 net.cpp:434] relu4_1 <- conv4_1
I1001 13:47:07.568662 16266 net.cpp:395] relu4_1 -> conv4_1 (in-place)
I1001 13:47:07.568681 16266 net.cpp:150] Setting up relu4_1
I1001 13:47:07.568689 16266 net.cpp:157] Top shape: 40 512 38 38 (29573120)
I1001 13:47:07.568696 16266 net.cpp:165] Memory required for data: 7610931680
I1001 13:47:07.568701 16266 layer_factory.hpp:77] Creating layer conv4_2
I1001 13:47:07.568722 16266 net.cpp:100] Creating Layer conv4_2
I1001 13:47:07.568729 16266 net.cpp:434] conv4_2 <- conv4_1
I1001 13:47:07.568740 16266 net.cpp:408] conv4_2 -> conv4_2
I1001 13:47:07.601750 16266 net.cpp:150] Setting up conv4_2
I1001 13:47:07.601786 16266 net.cpp:157] Top shape: 40 512 38 38 (29573120)
I1001 13:47:07.601793 16266 net.cpp:165] Memory required for data: 7729224160
I1001 13:47:07.601822 16266 layer_factory.hpp:77] Creating layer relu4_2
I1001 13:47:07.601845 16266 net.cpp:100] Creating Layer relu4_2
I1001 13:47:07.601855 16266 net.cpp:434] relu4_2 <- conv4_2
I1001 13:47:07.601869 16266 net.cpp:395] relu4_2 -> conv4_2 (in-place)
I1001 13:47:07.601887 16266 net.cpp:150] Setting up relu4_2
I1001 13:47:07.601897 16266 net.cpp:157] Top shape: 40 512 38 38 (29573120)
I1001 13:47:07.601903 16266 net.cpp:165] Memory required for data: 7847516640
I1001 13:47:07.601909 16266 layer_factory.hpp:77] Creating layer conv4_3
I1001 13:47:07.601929 16266 net.cpp:100] Creating Layer conv4_3
I1001 13:47:07.601936 16266 net.cpp:434] conv4_3 <- conv4_2
I1001 13:47:07.601948 16266 net.cpp:408] conv4_3 -> conv4_3
I1001 13:47:07.633193 16266 net.cpp:150] Setting up conv4_3
I1001 13:47:07.633229 16266 net.cpp:157] Top shape: 40 512 38 38 (29573120)
I1001 13:47:07.633235 16266 net.cpp:165] Memory required for data: 7965809120
I1001 13:47:07.633251 16266 layer_factory.hpp:77] Creating layer relu4_3
I1001 13:47:07.633267 16266 net.cpp:100] Creating Layer relu4_3
I1001 13:47:07.633278 16266 net.cpp:434] relu4_3 <- conv4_3
I1001 13:47:07.633297 16266 net.cpp:395] relu4_3 -> conv4_3 (in-place)
I1001 13:47:07.633314 16266 net.cpp:150] Setting up relu4_3
I1001 13:47:07.633323 16266 net.cpp:157] Top shape: 40 512 38 38 (29573120)
I1001 13:47:07.633330 16266 net.cpp:165] Memory required for data: 8084101600
I1001 13:47:07.633337 16266 layer_factory.hpp:77] Creating layer pool4
I1001 13:47:07.633352 16266 net.cpp:100] Creating Layer pool4
I1001 13:47:07.633358 16266 net.cpp:434] pool4 <- conv4_3
I1001 13:47:07.633368 16266 net.cpp:408] pool4 -> pool4
I1001 13:47:07.633420 16266 net.cpp:150] Setting up pool4
I1001 13:47:07.633431 16266 net.cpp:157] Top shape: 40 512 19 19 (7393280)
I1001 13:47:07.633437 16266 net.cpp:165] Memory required for data: 8113674720
I1001 13:47:07.633446 16266 layer_factory.hpp:77] Creating layer conv5_1
I1001 13:47:07.633466 16266 net.cpp:100] Creating Layer conv5_1
I1001 13:47:07.633474 16266 net.cpp:434] conv5_1 <- pool4
I1001 13:47:07.633489 16266 net.cpp:408] conv5_1 -> conv5_1
I1001 13:47:07.666296 16266 net.cpp:150] Setting up conv5_1
I1001 13:47:07.666330 16266 net.cpp:157] Top shape: 40 512 19 19 (7393280)
I1001 13:47:07.666337 16266 net.cpp:165] Memory required for data: 8143247840
I1001 13:47:07.666354 16266 layer_factory.hpp:77] Creating layer relu5_1
I1001 13:47:07.666370 16266 net.cpp:100] Creating Layer relu5_1
I1001 13:47:07.666383 16266 net.cpp:434] relu5_1 <- conv5_1
I1001 13:47:07.666399 16266 net.cpp:395] relu5_1 -> conv5_1 (in-place)
I1001 13:47:07.666416 16266 net.cpp:150] Setting up relu5_1
I1001 13:47:07.666445 16266 net.cpp:157] Top shape: 40 512 19 19 (7393280)
I1001 13:47:07.666453 16266 net.cpp:165] Memory required for data: 8172820960
I1001 13:47:07.666460 16266 layer_factory.hpp:77] Creating layer conv5_2
I1001 13:47:07.666483 16266 net.cpp:100] Creating Layer conv5_2
I1001 13:47:07.666491 16266 net.cpp:434] conv5_2 <- conv5_1
I1001 13:47:07.666505 16266 net.cpp:408] conv5_2 -> conv5_2
I1001 13:47:07.698894 16266 net.cpp:150] Setting up conv5_2
I1001 13:47:07.698933 16266 net.cpp:157] Top shape: 40 512 19 19 (7393280)
I1001 13:47:07.698940 16266 net.cpp:165] Memory required for data: 8202394080
I1001 13:47:07.698957 16266 layer_factory.hpp:77] Creating layer relu5_2
I1001 13:47:07.698977 16266 net.cpp:100] Creating Layer relu5_2
I1001 13:47:07.698987 16266 net.cpp:434] relu5_2 <- conv5_2
I1001 13:47:07.699003 16266 net.cpp:395] relu5_2 -> conv5_2 (in-place)
I1001 13:47:07.699021 16266 net.cpp:150] Setting up relu5_2
I1001 13:47:07.699030 16266 net.cpp:157] Top shape: 40 512 19 19 (7393280)
I1001 13:47:07.699036 16266 net.cpp:165] Memory required for data: 8231967200
I1001 13:47:07.699048 16266 layer_factory.hpp:77] Creating layer conv5_3
I1001 13:47:07.699067 16266 net.cpp:100] Creating Layer conv5_3
I1001 13:47:07.699074 16266 net.cpp:434] conv5_3 <- conv5_2
I1001 13:47:07.699086 16266 net.cpp:408] conv5_3 -> conv5_3
I1001 13:47:07.732007 16266 net.cpp:150] Setting up conv5_3
I1001 13:47:07.732044 16266 net.cpp:157] Top shape: 40 512 19 19 (7393280)
I1001 13:47:07.732050 16266 net.cpp:165] Memory required for data: 8261540320
I1001 13:47:07.732069 16266 layer_factory.hpp:77] Creating layer relu5_3
I1001 13:47:07.732089 16266 net.cpp:100] Creating Layer relu5_3
I1001 13:47:07.732098 16266 net.cpp:434] relu5_3 <- conv5_3
I1001 13:47:07.732115 16266 net.cpp:395] relu5_3 -> conv5_3 (in-place)
I1001 13:47:07.732136 16266 net.cpp:150] Setting up relu5_3
I1001 13:47:07.732144 16266 net.cpp:157] Top shape: 40 512 19 19 (7393280)
I1001 13:47:07.732156 16266 net.cpp:165] Memory required for data: 8291113440
I1001 13:47:07.732164 16266 layer_factory.hpp:77] Creating layer pool5
I1001 13:47:07.732178 16266 net.cpp:100] Creating Layer pool5
I1001 13:47:07.732185 16266 net.cpp:434] pool5 <- conv5_3
I1001 13:47:07.732198 16266 net.cpp:408] pool5 -> pool5
I1001 13:47:07.732247 16266 net.cpp:150] Setting up pool5
I1001 13:47:07.732259 16266 net.cpp:157] Top shape: 40 512 10 10 (2048000)
I1001 13:47:07.732265 16266 net.cpp:165] Memory required for data: 8299305440
I1001 13:47:07.732271 16266 layer_factory.hpp:77] Creating layer fc6
I1001 13:47:07.732298 16266 net.cpp:100] Creating Layer fc6
I1001 13:47:07.732306 16266 net.cpp:434] fc6 <- pool5
I1001 13:47:07.732319 16266 net.cpp:408] fc6 -> fc6
I1001 13:47:07.735903 16266 net.cpp:150] Setting up fc6
I1001 13:47:07.735918 16266 net.cpp:157] Top shape: 40 5 (200)
I1001 13:47:07.735924 16266 net.cpp:165] Memory required for data: 8299306240
I1001 13:47:07.735937 16266 layer_factory.hpp:77] Creating layer fc6_fc6_0_split
I1001 13:47:07.735949 16266 net.cpp:100] Creating Layer fc6_fc6_0_split
I1001 13:47:07.735958 16266 net.cpp:434] fc6_fc6_0_split <- fc6
I1001 13:47:07.735971 16266 net.cpp:408] fc6_fc6_0_split -> fc6_fc6_0_split_0
I1001 13:47:07.735985 16266 net.cpp:408] fc6_fc6_0_split -> fc6_fc6_0_split_1
I1001 13:47:07.736027 16266 net.cpp:150] Setting up fc6_fc6_0_split
I1001 13:47:07.736043 16266 net.cpp:157] Top shape: 40 5 (200)
I1001 13:47:07.736054 16266 net.cpp:157] Top shape: 40 5 (200)
I1001 13:47:07.736062 16266 net.cpp:165] Memory required for data: 8299307840
I1001 13:47:07.736068 16266 layer_factory.hpp:77] Creating layer acc
I1001 13:47:07.736084 16266 net.cpp:100] Creating Layer acc
I1001 13:47:07.736091 16266 net.cpp:434] acc <- fc6_fc6_0_split_0
I1001 13:47:07.736099 16266 net.cpp:434] acc <- label_data_1_split_0
I1001 13:47:07.736110 16266 net.cpp:408] acc -> acc
…
